poly_NN_Lyap_layer_2_width_30_samples_250000_lr_0.001_epoch_300_90000.pt (torch, 8199 bytes, 5 tensors)

weight f4 [30, 2]
000000 71 b2 2f bf 54 d3 4b 3e 16 70 b1 3e b7 d6 51 3f
       -0.68631655 0.19904834 0.34655827 0.81968254
000010 7f 1c a5 3f 3d fb b7 3e 0a 0e b5 3f 3d cf b0 be
       1.2899321 0.35933867 1.4144909 -0.3453311
000020 94 54 e6 3a e0 00 22 bb ce b5 ab bb d3 af 3d 3c
       0.0017572814 -0.002471976 -0.0052401787 0.011577564
000030 5c 95 5d bf f0 2f 86 bf 91 f8 d4 3f 45 1b a0 3e
       -0.8655603 -1.0483379 1.6638356 0.31270805
000040 b5 69 86 3b 27 35 d5 bb 21 8a 80 3f 99 54 a1 3f
       0.0041019567 -0.0065065804 1.0042154 1.2603942
000050 11 90 2d be 79 bc 7a 3f 6a 08 c9 bf 13 11 7d bf
       -0.16949488 0.97943836 -1.5705693 -0.9885418
000060 87 41 ba bf 46 c9 95 3e 79 99 8f 3e 76 10 9f bf
       -1.4551247 0.29255122 0.28046778 -1.2426898
000070 66 38 9a 3e 3d bd a4 3f 0d 9c 28 3d 3f 85 57 3f
       0.30121154 1.2870251 0.041164447 0.8418769
000080 ba d8 42 3b d0 ee 0e bc 98 bd 6b bf 62 25 c2 3d
       0.002973123 -0.0087239295 -0.9208617 0.094797865
000090 4e ed 78 3f c6 f8 1b 3e ea dd f1 bf 83 60 40 bf
       0.972371 0.15231618 -1.8895848 -0.75147265
0000a0 42 33 ac bf c1 4b 3f bf 1f b1 90 3e e3 5a 7c bf
       -1.3453143 -0.74724966 0.28260133 -0.9857618
0000b0 82 9e c1 bf fc 5a 88 bf 98 81 18 3f 20 0f ac be
       -1.5126498 -1.0652766 0.59572744 -0.3360529
0000c0 de 5e 89 3f 4f 52 70 be 9f 1e 9b bf a7 dc 82 3e
       1.0732076 -0.23468898 -1.211872 0.2555897
0000d0 88 e8 1e 3f b2 42 78 3f 7f 4b 8f 3f 8a 97 32 bf
       0.62073565 0.9697677 1.1194915 -0.6976248
0000e0 73 1b 03 c0 4f d3 6c bf 76 ed 7a bf ae 2a 75 bf
       -2.0485504 -0.9250993 -0.98018587 -0.9576825

bias f4 [30]
000000 ab 9e 15 c0 a3 c4 0a 40 1c b9 4d c0 fd 30 44 3f
       -2.3378093 2.1682518 -3.2144232 0.7663725
000010 0e 56 bf 3b b6 a9 76 3c da 33 cc 3f 2c 03 65 bd
       0.005839116 0.015055111 1.5953324 -0.055911228
000020 d5 b8 f4 3b ec 6e 5f bf b6 f3 1a c0 a3 a5 65 c0
       0.0074683228 -0.8727863 -2.421125 -3.5882347
000030 07 30 a8 3f 82 16 bf 3e 58 ff 5c 3f d7 e7 d3 3f
       1.3139657 0.3732186 0.86327124 1.6555127
000040 22 c9 e0 3b b9 34 b2 bf f5 fd 06 be c6 13 86 c0
       0.0068599144 -1.392234 -0.13182814 -4.1899137
000050 18 c6 e4 bf 4f 07 b3 3f 35 94 7b 40 d7 e1 26 c0
       -1.7872953 1.3986605 3.9309208 -2.6075342
000060 ca 32 22 c0 e7 29 e6 bf 85 5b 28 c0 33 79 c5 bf
       -2.53435 -1.7981538 -2.630586 -1.5427612
000070 cd be 8f 40 02 03 f3 bf
       4.492041 -1.8985293

weight f4 [30, 30]
000000 a6 80 c8 39 f5 60 39 bc c1 a6 62 3c 64 2d 49 3c
       0.00038242823 -0.01131462 0.013833703 0.012278888
000010 ea 49 b5 bc ca 30 25 bd 5a 2d 0e bc 09 6c 35 3b
       -0.022129972 -0.040329732 -0.008677805 0.0027682802
000020 84 d3 a9 3c 3f 14 44 ba e6 33 bf 3a 39 5d 21 3c
       0.020730741 -0.00074798235 0.001458761 0.009848886
000030 f2 42 16 bc 68 09 dc bc ce ef 5b bc e2 9e 8b 3a
       -0.009171234 -0.026859954 -0.013423873 0.0010652209
000040 df c8 c6 bc ef 71 83 3b df b2 c1 bb 62 66 9d bc
       -0.024265705 0.0040113847 -0.0059112157 -0.019213859
000050 ab 44 4d bb 44 f0 ad bc 62 7e 83 3b 2b 70 83 3b
       -0.0031321447 -0.021232732 0.0040128687 0.004011174
000060 5e ee ad 3c 0a 3f e8 3a c2 16 e4 bb 74 ce a7 bb
       0.021231826 0.0017718982 -0.0069607208 -0.0051210467
000070 32 68 a8 3b aa 75 23 b9 9b 6a 00 3b 3e bb c0 bb
       0.005139374 -0.00015588725 0.0019594792 -0.005881696
000080 e1 ed f1 bb 91 d7 af 3b a4 bf 9b bb 05 95 3f bc
       -0.0073830937 0.0053662737 -0.00475307 -0.011693244
000090 5f 50 fa bb 29 2c 22 3b e2 bb dc 3c c3 73 84 3c
       -0.0076389755 0.002474556 0.026945058 0.01616848
0000a0 d4 2c d3 3b 9e 9c 13 3c e6 4b 93 bb 5b 0a a5 bc
       0.006444553 0.009009508 -0.004495132 -0.02014654
0000b0 11 79 b3 bb 7e 4f 48 bc 1e 90 10 3d 12 ca 2f bc
       -0.0054770787 -0.012225984 0.03529369 -0.01072933
0000c0 14 cd 7e bc 6a 6b cb b9 81 c1 ce ba 73 8a e4 bb
       -0.015551824 -0.00038799207 -0.0015774221 -0.0069745122
0000d0 ba e7 0a 3c f8 eb 8b 3c 43 d3 2b 3c 50 aa 2e 3c
       0.0084780995 0.017080292 0.01048738 0.010660723
0000e0 93 4b ca bb a6 99 13 3c 93 69 00 bc 81 6d 0f 3b
       -0.00617356 0.009008801 -0.007837671 0.0021885338
0000f0 0f 37 cc 3e ea 6d a5 be 10 1d 12 bf 2f ed 66 3d
       0.39885756 -0.3231042 -0.57075596 0.05637854
000100 97 3f 8e 3b 80 d4 85 b9 18 7e a7 be 39 02 6b bf
       0.0043410766 -0.00025526062 -0.3271339 -0.91800267
000110 fe 07 5c 3a f6 f2 eb 3e ac 2b a9 3e 2b 0c ad 3e
       0.0008393525 0.46083802 0.33041131 0.33798346
000120 cf 99 56 3e 59 29 f9 be f1 ec 2f bf 04 85 13 bf
       0.20957111 -0.48664358 -0.6872092 -0.5762484
000130 14 ed a9 bb 42 80 fa 3e c0 15 26 bf da 86 9e 3e
       -0.0051857326 0.48925978 -0.6487694 0.3096226
000140 e9 62 17 3e aa 8f 1f bf 7a 11 2a 3f 67 13 e7 be
       0.14783825 -0.6232859 0.6643292 -0.4513199
000150 b0 3f 4c bf 6f 5f 24 3f d2 84 17 3d fb 76 10 3f
       -0.7978468 0.6420812 0.0369919 0.5643155
000160 f2 9f 87 3f df 8c bb 3e 1c 35 09 bf 63 1c d3 3e
       1.0595686 0.36630914 -0.53596663 0.41232595
000170 0a 68 12 3f 43 00 49 bd 0a f8 f6 3a fd 77 0e bc
       0.5719 -0.049072515 0.0018842232 -0.0086956
000180 86 91 2f 3f c8 3c 84 3f 37 24 07 3c 13 db 0f bf
       0.68581426 1.0331049 0.00824838 -0.56193656
000190 14 c2 ae be 8b 6f 31 bf 6b 0b 93 be a4 56 31 3d
       -0.34132445 -0.69310826 -0.2871965 0.043295518
0001a0 5b 4b ba 3d f8 c2 50 3e c2 9a d3 3c f2 6d b8 be
       0.09096404 0.20386875 0.02583063 -0.36021382
0001b0 52 96 7a 3f 31 21 56 bf 49 28 e3 be 55 a4 16 3f
       0.9788562 -0.83644396 -0.44366673 0.588445
0001c0 28 24 36 bf bf 66 db 3c 51 ef 0b 3f d4 63 e3 be
       -0.7114892 0.026782392 0.5466204 -0.444121
0001d0 e4 68 8b 3b c6 3b 92 be 26 2d 07 bf 9c 39 05 bf
       0.0042544473 -0.2856123 -0.52803266 -0.5204103
0001e0 0a f0 47 3f 2f de 8e be fb be cd bd b9 19 f2 be
       0.78100646 -0.27903888 -0.10046192 -0.4728525
0001f0 12 96 4a bc da 45 f2 b9 ee 4b e0 be 43 9a 2f bf
       -0.012364881 -0.0004620988 -0.4380793 -0.6859476
000200 3b 80 23 bb 8f 13 2d bf a8 4b 09 3f 36 88 0b be
       -0.0024948257 -0.6760797 0.5363107 -0.13626179
000210 8c 0e b2 3d 69 a6 34 3f b2 5e a5 bf 92 ee a1 3e
       0.08694181 0.7056642 -1.2919524 0.31627327
000220 33 de f2 bb 2b 01 7d 3f 3c 69 3c bf 25 40 9b 3c
       -0.007411742 0.9882991 -0.73598075 0.018951485
000230 d7 5b 00 3d 80 36 c7 be f0 66 36 3f 69 0b a2 be
       0.031337585 -0.38908768 0.7125082 -0.3164933
000240 8e d7 5f bf 99 b0 ab bc da 38 c0 3d b1 8f 44 3d
       -0.87438285 -0.020958232 0.093858436 0.047988597
000250 64 4a 1e 3f 3a b1 70 3f a6 fc 9d bf a5 db e7 3e
       0.6183226 0.94020426 -1.2342727 0.45284763
000260 0d 44 11 3f eb fb 3a bf 2b cc 64 3b 73 dd 78 3c
       0.5674446 -0.73040646 0.0034911733 0.015189516
000270 f6 2d 51 bf d3 4a 55 bd 34 44 30 bc f4 f6 8a 3e
       -0.81710756 -0.05207331 -0.010758448 0.27141535
000280 f4 33 6f 3f 1b 03 25 be 50 7d 55 bf 10 db bb be
       0.9343865 -0.16114466 -0.83394337 -0.3669057
000290 6d 10 57 bd d7 59 e9 be 71 de 84 3c f9 32 f2 be
       -0.0525059 -0.45576355 0.01621935 -0.47304514
0002a0 b6 ef 66 3d 0a 4c 40 be f8 1c 7c 3b 05 a3 35 be
       0.05638095 -0.18779007 0.0038469415 -0.17737968
0002b0 92 6e 9b bf 1d af 64 3f 62 bd ee 3f 4b 43 2b 3f
       -1.2143118 0.893297 1.8651545 0.66899556
0002c0 17 fc 6f 3f 44 a1 ec 3e bf 84 a9 bf 2e 65 93 bf
       0.93744034 0.46216786 -1.3243636 -1.1515253
0002d0 0e bc c8 3f 1a e2 0e c0 88 7d 54 40 ba 02 22 c0
       1.568239 -2.2325501 3.3201618 -2.5314164
0002e0 8b f2 a7 bc 48 af 88 3c 08 16 b9 3f a9 60 af 3f
       -0.020501396 0.016685143 1.4459848 1.3701373
0002f0 08 50 ee 3b 44 64 29 bf 66 22 10 3f 6d 6e 13 c0
       0.007272724 -0.6616862 0.5630249 -2.3036149
000300 01 4f 43 3e a2 73 37 3e 7a f0 d0 3e 4c c1 6b be
       0.19073106 0.17915204 0.4080847 -0.23022956
000310 b7 cc 09 3d 7e 39 ec 3f 01 b9 99 bf d6 72 0b c0
       0.033642497 1.8455045 -1.2009584 -2.178884
000320 8c ef 24 c0 7b 24 00 bf 8e 8d 81 c0 fd ff b0 3f
       -2.5771208 -0.50055665 -4.0485296 1.3828121
000330 b9 ae 6d 3f ab fa f3 3f 5a ac f7 3e 1c 44 e0 3e
       0.9284473 1.9060873 0.4837368 0.43801963
000340 27 3c a5 c0 97 6b 3e be fc f7 2c 40 7c fa f8 bf
       -5.163593 -0.1859573 2.7026358 -1.9451442
000350 09 cf 27 bf 3d 2d 91 3e d9 a2 a2 bc 3e 9e 5e 3c
       -0.65550286 0.28354827 -0.019853042 0.013587533
000360 e1 da 18 bf 6f 19 e2 3d e7 27 28 bc 3a 48 d7 3e
       -0.5970898 0.11040007 -0.01026342 0.42047292
000370 80 63 31 3f bf 8c be 3f 1a 28 cb bf 94 5e 87 be
       0.6929245 1.4886702 -1.5871613 -0.26439345
000380 e2 1e d6 be 05 bb bc bf 3c 5c 74 bc 6a 79 02 40
       -0.41820437 -1.4744574 -0.0149145685 2.0386605
000390 cf 8e 8e bd 5e af 80 40 c7 45 d3 3f 12 23 50 bf
       -0.06960832 4.021407 1.6505669 -0.81303513
0003a0 ef 83 67 3f 3a c4 85 bf a0 36 6f bf 54 a8 a0 3f
       0.9043569 -1.0450509 -0.93442726 1.255137
0003b0 45 33 60 3f ee e6 80 3f ef dc 14 3f b6 ca 07 40
       0.8757823 1.0070474 0.5814962 2.1217475
0003c0 06 6d a5 bf 2c 30 08 bf 53 5e 74 40 b5 e5 ce bf
       -1.2923896 -0.53198504 3.818257 -1.6163851
0003d0 c1 4f c1 3b 1f e4 a3 3c fe fa 5b bf 79 04 35 3f
       0.0058994 0.020006238 -0.8592986 0.7070995
0003e0 75 74 02 bc 65 54 8a 3f 13 7b d3 3f 52 25 85 bf
       -0.007962336 1.0807005 1.6521934 -1.0402014
0003f0 87 8d a6 bf e9 07 49 bf 4b 73 15 bf 49 df 9e be
       -1.3011941 -0.78527695 -0.5837905 -0.31029728

bias f4 [30]
000000 7f a3 17 3b b0 8d 6f bc e6 27 2b bd 4d 26 02 be
       0.0023138223 -0.014621183 -0.041786097 -0.12709923
000010 65 d6 7f 3b 24 88 05 be 2d 56 29 40 b6 8d cd 3e
       0.0039037701 -0.13040215 2.6458848 0.4014718
000020 6d 45 82 3f d8 57 b0 3c c2 b3 49 3d 7b 9d 2f bc
       1.0177437 0.021526262 0.049243696 -0.010718699
000030 24 02 05 3d 1f b7 d8 3e c7 c6 86 bb 95 e4 24 3a
       0.032472745 0.4232721 -0.0041130516 0.0006290165
000040 76 af 5d ba 18 78 d3 bb 0c 85 9c 3e 18 4f 2c 3f
       -0.00084566267 -0.0064535253 0.30570257 0.6730819
000050 63 e4 92 bb 24 e6 48 bb 43 34 0c bb af dc 88 bb
       -0.004482792 -0.0030654753 -0.0021393455 -0.004176698
000060 23 6a db 3d 0e 71 c6 bb f3 5a 25 c0 a4 46 64 3b
       0.10713603 -0.0060559576 -2.583676 0.0034832144
000070 e8 f8 ee bf e4 9c bd bc
       -1.866971 -0.0231461

weight f4 [1, 30]
000000 3c a7 a7 3a 11 ae 3f 3b 75 af ce bd 58 76 a6 3d
       0.0012790929 0.0029248039 -0.100920595 0.08128041
000010 fb d3 0c bd 77 8b 23 bd 13 9b ae 3b 99 6d f2 bc
       -0.034381848 -0.039927926 0.005328545 -0.029593276
000020 35 d1 e6 bc 8c 15 97 3d 76 01 c2 bd 7a 78 ce ba
       -0.02817593 0.073771566 -0.09472935 -0.0015752458
000030 a7 23 a8 3d 15 55 86 bd 90 7e 16 bb 56 8c 2d 3b
       0.08209925 -0.06559197 -0.002296362 0.0026481352
000040 c2 4e 92 3a ce 9b 91 bd 3f 3e 1b be d8 19 8c bd
       0.0011162388 -0.071097955 -0.15160464 -0.06840867
000050 6d de dc 39 98 c2 73 38 48 f5 80 ba fc 50 29 bb
       0.0004212739 5.8116944e-05 -0.0009838725 -0.0025835624
000060 2a 01 59 3d 72 06 c2 b8 da 98 68 bb fa 10 95 ba
       0.052979626 -9.2518414e-05 -0.0035491497 -0.0011372857
000070 98 70 ed bb 34 71 7d 3d
       -0.0072460882 0.061875537
