poly_NN_Lyap_layer_2_width_15_samples_90000_lr_0.001_epoch_300_90000.pt (torch, 5183 bytes, 5 tensors)

weight f4 [15, 2]
0	0x3cd315dd	0.025767261
1	0xbf09f992	-0.5389644
2	0x3fae8bae	1.3636377
3	0x3e97a73d	0.2961978
4	0x3f270c36	0.6525301
5	0x3ef66c5c	0.48129547
6	0xbf2b0f95	-0.6682065
7	0xbe8fbfed	-0.28076115
8	0xbe9a2dcf	-0.30113074
9	0xbe854f2d	-0.2603697
10	0x3f1e7daa	0.619105
11	0x3f468005	0.7753909
12	0x3e7e4872	0.24832323
13	0xbf23d079	-0.6398998
14	0xbf317186	-0.6931385
15	0x3e1e9c46	0.15489301
16	0xbf62b215	-0.8855298
17	0xbe631b9f	-0.22178505
18	0xbf9fec92	-1.249407
19	0xbf210f47	-0.62913936
20	0xc018a05d	-2.3847878
21	0xbf34935d	-0.7053736
22	0xbd8c7b81	-0.06859494
23	0x3f19b5eb	0.6004321
24	0x3f66985e	0.90076244
25	0xbe7f379e	-0.2492356
26	0x3f9d1979	1.2273399
27	0x3f01085e	0.5040339
28	0x3eacf49d	0.33780375
29	0x3f205168	0.62624216

bias f4 [15]
0	0x3f7e538d	0.9934624
1	0xc0470591	-3.1097147
2	0xbef61239	-0.48060778
3	0xbfa77691	-1.3083059
4	0xbf347e65	-0.7050536
5	0x3f704975	0.93862087
6	0xbf215184	-0.6301501
7	0xbfb85ad2	-1.4402716
8	0x3f0fd9e9	0.5619188
9	0x402f40fe	2.7383418
10	0xc0b2ab52	-5.583413
11	0x3fc77462	1.5582392
12	0x3f45320e	0.770295
13	0x4034e505	2.8264782
14	0x401cba89	2.4488852

weight f4 [15, 15]
0	0xbf39c9e7	-0.72573704
1	0xbdc5983d	-0.09648178
2	0x3f0f66e5	0.5601638
3	0xbf73dd37	-0.9525942
4	0xbd8f37e7	-0.069930844
5	0xbe7ac298	-0.24488294
6	0xbf449b22	-0.76799214
7	0xbeca49cc	-0.39509428
8	0xbe3b94b6	-0.18318447
9	0xbf428b4d	-0.75993806
10	0xbe9b4e92	-0.30333382
11	0xbc284a55	-0.010271628
12	0x3cdea234	0.027176954
13	0x3f6e1501	0.930008
14	0x3d4fc300	0.050723076
15	0xc03cbd8a	-2.9490685
16	0x40b4b79d	5.6474137
17	0x40402af3	3.0026214
18	0xbf2e9d9b	-0.68209237
19	0xbf604de0	-0.8761883
20	0xbfd83812	-1.6892111
21	0xbea86702	-0.3289109
22	0xbe168c80	-0.14702034
23	0x3f5e74b7	0.8689684
24	0xc059456b	-3.394862
25	0xbf3ed450	-0.74542713
26	0xbf83e62a	-1.0304615
27	0xbf98e178	-1.1943808
28	0x3f4f8a71	0.8107062
29	0xbf583387	-0.84453624
30	0xbf9058b6	-1.1277072
31	0x3fd7b105	1.6850897
32	0x3ea8b15b	0.3294781
33	0xbe46f84f	-0.1943066
34	0xbf08062e	-0.5313443
35	0xbfa8cb4f	-1.3187045
36	0x3ef34545	0.47513786
37	0x3f94c491	1.1622487
38	0x3e98b192	0.29822975
39	0xc0939d90	-4.6129837
40	0xbfe6e8d0	-1.8039799
41	0xbfb1bff4	-1.3886704
42	0xbfebe41d	-1.842899
43	0x3f76feaf	0.96482366
44	0xbf43082a	-0.7618433
45	0x3ba870dd	0.0051404075
46	0xbb53d83b	-0.0032324928
47	0x3b534f50	0.003224332
48	0x3c0844a9	0.008317151
49	0xbbec2502	-0.00720656
50	0x3bae85ec	0.0053260233
51	0x3b00e233	0.0019666075
52	0x3adcc7b9	0.001684419
53	0xb982fd41	-0.0002498422
54	0xbb04d31a	-0.0020267428
55	0x3b64b5ad	0.0034898326
56	0xbb8b61bc	-0.004253594
57	0xbb86bd73	-0.0041119396
58	0x3c412120	0.011787683
59	0xbbfe6dc4	-0.00776455
60	0x3ab244b6	0.00136008
61	0x3bb44585	0.0055014514
62	0x3b2e2ae2	0.0026575853
63	0x3a9a289b	0.0011761369
64	0xbcb340b7	-0.021881444
65	0xbc0412f2	-0.008061158
66	0xbc3f2da1	-0.011668594
67	0x3bf207c8	0.0073861815
68	0x3c1d3953	0.009596187
69	0x3bdbd6d6	0.00670896
70	0xbbb7be1f	-0.005607381
71	0xbba39927	-0.0049926224
72	0x3c680fdb	0.0141639365
73	0xbc2d20c6	-0.010566896
74	0xbabeff88	-0.0014572004
75	0x3b68ead1	0.0035540352
76	0x3c11ad81	0.008891464
77	0xbbebe4bf	-0.0071988995
78	0xbb32b1cd	-0.0027266622
79	0xbdbc2569	-0.09186823
80	0xbcd5b06a	-0.026085097
81	0xbc0be62f	-0.008538767
82	0x3c56bf0a	0.013107071
83	0x3c933c27	0.017973019
84	0x3be9ba0f	0.0071327756
85	0xbcc01e81	-0.023452045
86	0x3baa7d03	0.005202891
87	0x3ccb9d79	0.024855362
88	0xbd6f72e9	-0.058459196
89	0xbc5051e5	-0.012714838
90	0x3de4b6a0	0.111676455
91	0x3f1f5bad	0.6224926
92	0x3e74b70a	0.23897949
93	0xbec27347	-0.37978575
94	0xbed5912d	-0.41712323
95	0xbd4beaab	-0.049784344
96	0xbef6e970	-0.48224974
97	0xbe16d901	-0.14731218
98	0xbf37fb40	-0.7186775
99	0xbf1244a6	-0.57136
100	0xbf89e640	-1.0773392
101	0x3ed7be4a	0.42137367
102	0x3ca2373d	0.01980173
103	0x3f57683a	0.8414341
104	0x3f363f06	0.71189916
105	0x3e2a59b7	0.16635786
106	0xbedeac5a	-0.4349087
107	0xbeae49dd	-0.34040728
108	0x3f4d60ae	0.80225646
109	0x3e84632b	0.2585691
110	0x3e7f5e87	0.24938403
111	0xbea27371	-0.317287
112	0xbf74a953	-0.9557087
113	0x3f49afca	0.7878386
114	0x3f1e4655	0.6182607
115	0x3f3a5654	0.72787976
116	0x3e833c0b	0.25631747
117	0x3f45ae44	0.77219033
118	0xbf4100e7	-0.75392
119	0xbe7eb7b8	-0.2487477
120	0x3f30ee76	0.6911386
121	0xbf8150f0	-1.0102825
122	0xbf11cc06	-0.5695194
123	0x3def6811	0.11689771
124	0x3e98b851	0.29828122
125	0x3e4eaf38	0.20184028
126	0x3d95a5f5	0.073070444
127	0xbf3b604c	-0.7319381
128	0x3eb1c1e9	0.34718254
129	0x3f5bd814	0.85876584
130	0x3e6cea3c	0.23136228
131	0x3da7844e	0.08179532
132	0x3f04849f	0.51764864
133	0xbef6163a	-0.48063833
134	0xbe2815f6	-0.16414627
135	0xbe9a7665	-0.30168453
136	0x3f51172a	0.8167597
137	0x3edb937a	0.42885953
138	0xbf8fafe4	-1.1225553
139	0xbf2e6d15	-0.68135196
140	0x3e98ea4b	0.2986625
141	0x3f4f2854	0.8092091
142	0xbf091fab	-0.53563946
143	0xbf0e7178	-0.5564189
144	0xbf1fc170	-0.6240454
145	0x3efb9594	0.49137557
146	0xbf47dedd	-0.7807444
147	0xbe12cdf0	-0.14336371
148	0x3eefab75	0.468105
149	0x3ed8ee51	0.4236932
150	0xbfcc7303	-1.5972599
151	0xbfabd468	-1.3424196
152	0x3f1ef9c6	0.62099874
153	0x3dbf473c	0.09339759
154	0x3f0c1057	0.5471243
155	0xbff6c1df	-1.9277915
156	0x3fdfaca3	1.747456
157	0x3f16477f	0.58702844
158	0x3fb95c33	1.4481262
159	0x3f4f0153	0.80861396
160	0x4066e71b	3.6078556
161	0xbfc6a61b	-1.5519441
162	0xbf4a9dbe	-0.79146945
163	0xbff17aed	-1.8865639
164	0xbfc3dcfa	-1.5301812
165	0x3f0a5ed9	0.54050976
166	0xbed2d8fe	-0.41181177
167	0xbec5c2bf	-0.38625142
168	0x3f23ca83	0.63980883
169	0x3f11f2f9	0.5701137
170	0x3f644dfe	0.89181507
171	0xbe5553ec	-0.20832795
172	0xbe30d6bf	-0.17269419
173	0x3eaf532c	0.34243143
174	0x3ec89821	0.39178565
175	0x3f899ac7	1.0750359
176	0x3ed95af1	0.42452195
177	0x3f9f326b	1.2437261
178	0xbf5203fc	-0.8203733
179	0xbf27a7e2	-0.65490544
180	0xbaa1fe1c	-0.0012359056
181	0x3a36c4dd	0.0006972084
182	0xbae60709	-0.0017549704
183	0x3bc67253	0.006056109
184	0x3c8c20bd	0.017105455
185	0x3b8b4835	0.004250551
186	0xba3d1e86	-0.0007214326
187	0x3abff760	0.0014645867
188	0xbbb72496	-0.005589078
189	0x3b01414a	0.0019722753
190	0xbb465ce4	-0.003026777
191	0x3b813510	0.003943093
192	0x3ad38c0e	0.0016139762
193	0x3c0e783c	0.008695658
194	0xbad18c18	-0.0015987186
195	0xbf15deff	-0.5854339
196	0x3f4ab7f8	0.79186964
197	0x3f481f0e	0.78172386
198	0xbe6338f4	-0.22189695
199	0xbf2e0a69	-0.67984635
200	0xbf10f887	-0.5662922
201	0x3e53fc38	0.20701683
202	0x3f8c50b0	1.0962124
203	0xbed11dc1	-0.40843013
204	0xbfd9c9ab	-1.7014669
205	0x3f993312	1.196871
206	0xbf4d7c12	-0.8026744
207	0xbf7dfd50	-0.9921465
208	0x3e8cbd18	0.27488017
209	0x3f222403	0.633362
210	0x3f05fd2e	0.52339447
211	0x3e89dfaf	0.2692847
212	0x3e697fac	0.22802609
213	0xbf674082	-0.90332806
214	0xbf1ffa0c	-0.62490916
215	0x3e17a063	0.14807276
216	0x3c45bdfc	0.012069222
217	0xbeb98540	-0.36234474
218	0xbf184554	-0.59480786
219	0xbf2d415c	-0.67677855
220	0x3e0d17a6	0.13778552
221	0x3f23e9a4	0.6402838
222	0x3e7181a4	0.2358461
223	0x3e8e62c0	0.27809715
224	0xbe461850	-0.19345212

bias f4 [15]
0	0xbdb52da8	-0.08846599
1	0x3ef9cd59	0.4878948
2	0x3f9df084	1.2339025
3	0x3b1fca59	0.0024382083
4	0xbb686ef6	-0.0035466528
5	0xbc1af6d3	-0.009458262
6	0xbd11459c	-0.035466775
7	0xbdaf552e	-0.085611686
8	0xbc10f3b0	-0.008847162
9	0x3e37bffd	0.17944331
10	0x3e8b2a3d	0.27180663
11	0x3d759828	0.05995956
12	0x3a2135af	0.0006149662
13	0x3e863ec3	0.26219758
14	0xbec5ae05	-0.3860933

weight f4 [1, 15]
0	0x3e5bcdc5	0.21465214
1	0xbd15cf97	-0.036574926
2	0x3d00e3f7	0.031467404
3	0x383e34be	4.534865e-05
4	0xba13673e	-0.0005622989
5	0xb8f66c75	-0.00011750396
6	0x3e5f7e06	0.21825418
7	0x3e7f598f	0.24936508
8	0x3ddc2e28	0.10750991
9	0xbe2740e7	-0.16333352
10	0xbd491208	-0.04908946
11	0x3e19f7f2	0.1503599
12	0xb6e4b618	-6.816128e-06
13	0x3c98e51d	0.018663937
14	0x3e333fe6	0.17504844
