VDP_ZK/Van der Pol_NN_Lyap_layer_2_width_15_samples_90000_lr_0.001_epoch_300_90000.pt (torch, 5239 bytes, 5 tensors)

weight f4 [15, 2]
000000 79 37 cc bf 50 eb d0 3f 5e 82 ce bf 48 31 77 3f
       -1.5954429 1.6321812 -1.6133535 0.9655957
000010 65 d3 19 3f 14 98 de bf e8 2a e1 bf b2 dd 87 3f
       0.6008819 -1.739016 -1.7591219 1.0614531
000020 e9 01 11 40 d3 69 d9 be f3 ce dd bf ff 39 32 3f
       2.2657416 -0.4246355 -1.7328781 0.69619745
000030 8e f0 c3 be 69 d5 c5 3f 81 b1 fc bf 7c d9 19 3e
       -0.38269466 1.5455753 -1.974167 0.1502437
000040 f8 3a 08 3e e2 18 96 3f 23 c6 b3 bf a9 41 06 40
       0.13303745 1.1726344 -1.4044842 2.0977576
000050 75 cf f7 bf 79 2d 75 bf 31 9c fd bf 1e dd 11 3f
       -1.9360186 -0.9577251 -1.9813291 0.56978023
000060 46 0c db bf a9 76 7d bf 22 4b 3c be 84 0a 5f bf
       -1.711312 -0.99009186 -0.18388036 -0.8712542
000070 f8 63 21 c0 4f 24 51 3e
       -2.5217266 0.20424007

bias f4 [15]
000000 c9 33 4d 40 6a a3 22 c0 fc 2e 4b c0 08 2b bb 3e
       3.2062857 -2.541224 -3.1747427 0.36556268
000010 94 7b c8 bf 0f c3 0b 40 42 c5 1a c0 f8 3d 5d bf
       -1.5662713 2.1837804 -2.4182897 -0.8642268
000020 ce 34 66 3f 46 68 88 c0 a4 d2 85 c0 02 97 ec bf
       0.89924324 -4.2627287 -4.181963 -1.8483584
000030 91 2f 77 40 b7 d9 f4 3e d3 38 03 c0
       3.8622782 0.47822353 -2.0503433

weight f4 [15, 15]
000000 de af 7e 3e 2e 04 27 3e af e6 14 3e 11 97 6a be
       0.24871776 0.16310188 0.14541124 -0.2290919
000010 c8 43 26 be 3a ba 66 bf 47 a8 d0 3e 06 64 19 be
       -0.16236794 -0.9012791 0.40753385 -0.14979562
000020 c7 f4 47 bc 86 f3 ae 3e ce c4 f3 3d ae 15 11 3f
       -0.012204356 0.3417017 0.11902772 0.56673706
000030 64 38 fd be 8d e5 d3 3e db 15 c1 3d 14 8b a8 3d
       -0.49457085 0.4138607 0.09427997 0.08229652
000040 f4 2b a9 be 7c a5 3d bf f3 38 b4 3e 43 19 f0 be
       -0.33041346 -0.74080634 0.351997 -0.46894273
000050 b2 51 71 3e 33 2d 3b 3e 54 44 8b 3e 3a 5f 6e 3e
       0.2356632 0.18278961 0.27200568 0.23278514
000060 12 10 54 3f ef 9b 30 bf a8 0e 01 be 8a 60 82 bf
       0.8283702 -0.68987936 -0.12603247 -1.0185711
000070 04 14 58 bf 2c c0 43 bf 12 d4 41 40 e4 22 5a 3e
       -0.8440554 -0.76465106 3.0285687 0.21302372
000080 e9 81 f8 bf 05 10 1f 3f 65 e2 89 bf 29 a8 c6 3f
       -1.9414645 0.6213382 -1.0772215 1.5520068
000090 63 b7 04 3d 64 be 03 bd d8 69 9d 3f db 6d 78 3e
       0.032401454 -0.032163993 1.2297926 0.24260657
0000a0 fb 03 8a bf b6 75 95 3e 5c 13 6e 3f ab ab 83 3e
       -1.0782465 0.2919137 0.9299829 0.2571691
0000b0 fd fc e0 bf 9e 25 64 bf 61 95 49 bf 6b e4 11 be
       -1.7577206 -0.891199 -0.7874356 -0.14247291
0000c0 30 b0 82 be 0b 78 42 be 08 4a 32 bf ef be ed 3d
       -0.25525045 -0.18991105 -0.6964421 0.11608683
0000d0 54 cc 37 3e c7 d2 37 bf ed 7d c9 be 73 d2 3f be
       0.17949039 -0.71805996 -0.39353886 -0.18732624
0000e0 97 ba 66 bf 98 f6 ae bf 60 df 8f bd b1 7a 9f 3e
       -0.90128464 -1.3669004 -0.07025027 0.31148294
0000f0 d5 80 ac bf 49 f6 25 c0 57 90 0d 3e 38 cf c6 3e
       -1.3476816 -2.593157 0.13824593 0.3882997
000100 7f 80 ba 3f fe a1 c1 bf 45 40 52 c0 11 bb 9f bf
       1.4570464 -1.5127561 -3.2851727 -1.2478963
000110 60 12 a4 3f 16 1b 00 c0 4d 00 66 c0 86 66 ae be
       1.2818108 -2.0016532 -3.5937684 -0.34062594
000120 a0 75 9e 3f 9c 73 ee 3f 35 78 a9 bf f7 68 93 bf
       1.2379646 1.8629031 -1.3239809 -1.1516408
000130 6a 97 92 bf 45 47 9f bf 2d 2a 26 bf ed f0 81 3f
       -1.1452458 -1.2443625 -0.64908105 1.015165
000140 fd 71 70 bf b0 6e bd bf db 9e 95 be 41 97 a7 3e
       -0.9392393 -1.4799404 -0.2922276 0.32732585
000150 4e 38 10 bf 4a bb be bf e2 16 73 bf 9e 9c 8b 3f
       -0.56335914 -1.4900906 -0.9495679 1.0907171
000160 76 6d 96 3e 93 34 17 3b 48 1f bf be da 20 86 bf
       0.29380387 0.0023072108 -0.37328553 -1.0478776
000170 f2 54 03 be 62 32 c1 be d7 52 47 3e 16 27 53 bf
       -0.12825373 -0.37733752 0.19465195 -0.82481515
000180 e1 85 4a bd 52 fb 7f bf 4e 33 84 3f f1 69 25 3d
       -0.049444083 -0.9999286 1.0328157 0.040384237
000190 d2 cc bd 3d de f3 1c bf 96 1f db be b9 d6 b3 3f
       0.09267582 -0.6130961 -0.42797536 1.4049903
0001a0 35 68 11 3f a0 37 bb bf bc a6 04 bf 34 08 92 3f
       0.5679963 -1.462635 -0.51816916 1.1408753
0001b0 9a a8 9e bf 14 52 8e 3e 64 91 de bf 19 59 d9 3f
       -1.2395203 0.27796996 -1.738812 1.6980315
0001c0 14 e3 7d be b7 d4 41 bf 22 26 c2 3f 92 79 9e 3f
       -0.24793655 -0.757152 1.5167887 1.238085
0001d0 a1 59 b3 bf b1 7a 8b c0 d8 d4 99 3f 38 4e 84 bf
       -1.4011728 -4.358727 1.201808 -1.033637
0001e0 00 b8 9b bf a3 4c ac be 73 d9 46 3f 91 35 81 bf
       -1.2165527 -0.3365222 0.7767555 -1.0094472
0001f0 2a 20 d5 be a1 30 d5 bf 67 b8 c7 3f 41 1a db 3c
       -0.41626102 -1.6655465 1.560315 0.026745917
000200 57 08 6e bf 9b 11 30 bf 11 0d 6d be 8a 91 27 bf
       -0.92981476 -0.68776864 -0.23149516 -0.6545645
000210 b9 4e 51 c0 8b cb ba 3e 1a 2c 7b 3d 58 c3 0f 3e
       -3.2704298 0.36483416 0.061321355 0.14039361
000220 59 58 4c 3d 80 87 38 bf 33 3a dd be 28 eb d1 bc
       0.049888942 -0.72081757 -0.43208465 -0.025624827
000230 c8 bd e3 be 9b 5f 9a 3e 90 d3 03 3f f9 37 60 3e
       -0.4448073 0.30151066 0.51494694 0.21896352
000240 ac 54 38 3f aa cd 25 bf 12 00 cd bd 3c 08 4d bf
       0.720042 -0.64766943 -0.10009779 -0.8009069
000250 62 d4 8d bf 06 39 a4 3e 57 7b 8f bb ab a9 36 3b
       -1.1080439 0.32074755 -0.004378717 0.0027872126
000260 bd 73 d8 bb 3d 26 67 3a aa f6 cc bb 2e c7 21 bc
       -0.006605594 0.00088176486 -0.0062549906 -0.009874148
000270 d2 0d 0d 3c e2 37 36 bb 77 21 ae bb 88 0b e2 ba
       0.008609252 -0.0027804305 -0.005314048 -0.0017245868
000280 ac 4c ae bb 8c 96 11 3c 3e fd 01 bc 0b eb 13 bc
       -0.0053191986 0.008885991 -0.007933913 -0.009028207
000290 94 6e 6e bb 83 8d 0a 40 7a 8f a3 bc 99 ab 5f bf
       -0.0036381828 2.1648872 -0.019965876 -0.8737121
0002a0 33 69 49 3f c2 5d 83 bf 9c c3 fe bd 4f b1 06 bf
       0.78676146 -1.0262988 -0.12439653 -0.526143
0002b0 d4 a6 58 bf 58 3e a1 3f 11 a0 0d 3f 12 9f 5e bf
       -0.8462956 1.2597151 0.55322367 -0.8696147
0002c0 18 e1 82 3f 24 c8 aa 3c 44 a8 06 3f f5 ec 0a 3f
       1.0224943 0.020847388 0.526005 0.5426782
0002d0 96 2e 81 3f 46 82 48 bf fe 31 f6 be 0f 37 1b 3f
       1.0092342 -0.7832378 -0.48085016 0.6063089
0002e0 b8 90 57 bf 02 87 49 3f b2 32 0f 3f b2 d9 69 be
       -0.842052 0.7872163 0.5593673 -0.2283695
0002f0 9f ef 42 3f 1c 72 20 3f fb a4 17 bf 52 49 81 bf
       0.7614688 0.6267412 -0.59236115 -1.01005
000300 46 81 a4 be 74 08 b4 bf f5 cb c7 bf 45 41 58 c0
       -0.32129878 -1.406508 -1.5609118 -3.3789837
000310 17 39 b4 be 35 f5 3c 40 37 fe d8 3e 0c 4b d5 3f
       -0.35199806 2.9524662 0.4238145 1.6663527
000320 ee 34 55 c0 06 22 2e bf bd c2 a1 3f 10 ff 48 c0
       -3.3313556 -0.68020666 1.2637554 -3.1405678
000330 62 32 17 bf 02 50 51 3f bb d8 d6 bd 52 f7 aa bf
       -0.59061253 0.8176271 -0.10490557 -1.3356726
000340 ff 1d ae be 55 5b d6 3d 29 c0 20 3e 4d 83 b7 3f
       -0.3400726 0.10466639 0.15698303 1.4336945
000350 b8 c3 17 40 5b e8 aa 3f fc 83 14 bf 83 d7 ea 3f
       2.3713207 1.3352159 -0.5801389 1.8347019
000360 b5 8c b5 3f 9c 74 4b 3f ab e9 a8 bc e5 6f 29 40
       1.4183565 0.79474807 -0.020619234 2.6474545
000370 58 fa 69 40 f3 1d d5 3f 08 5c d0 bf 4f 0d b6 bf
       3.6559048 1.6649765 -1.6278086 -1.4222811
000380 27 a4 0e 3e
       0.13929807

bias f4 [15]
000000 93 d3 a3 3f 47 82 a6 3e b2 06 eb be 66 b8 90 3d
       1.2798942 0.3252127 -0.45903546 0.07066421
000010 d1 98 4b bf 6d 61 20 bf 58 5d a1 be f0 9c 93 3f
       -0.79530054 -0.6264866 -0.31516528 1.1532269
000020 9b 90 3b 3f 2d 7d d7 3e d3 17 aa bb dc cc c6 3e
       0.73267525 0.4208769 -0.0051908283 0.3882817
000030 c6 f2 73 3e d0 27 04 bd a9 10 0c 40
       0.2382308 -0.03226453 2.1885169

weight f4 [1, 15]
000000 a5 aa 93 3c df 5f 74 3e 65 29 04 be 26 59 2e be
       0.018025706 0.23864697 -0.12906416 -0.17026195
000010 ed d4 01 3e 0d fa dd 3d 65 3a 9e 3d 86 ef a5 3d
       0.12678881 0.10838709 0.077259816 0.08102326
000020 b2 80 09 be 95 f8 af be 8e a4 68 bb 9e a7 1f 3d
       -0.13428 -0.3436934 -0.0035498473 0.03897821
000030 0b 0e cb 3d 86 2c bb bd 16 a4 bb 3d
       0.09914788 -0.091393515 0.09162156
