VDP_ZK/Van der Pol_NN_Lyap_layer_2_width_15_samples_90000_lr_0.001_epoch_300_62500.pt (torch, 5239 bytes, 5 tensors)

weight f4 [15, 2]
00000000: 99e3 d5bf 1d95 c03f ed9c ad3e fa3b b8be
00000010: 9729 633f bf01 b7bf 906a e6be 812b a9bf
00000020: b1b3 abbf 0a7b 67bf ea2f 563f cfb3 593f
00000030: d2c5 34c0 716d 363f e283 d33f 64b0 efbf
00000040: 0adb d5bf a4d5 453f 22b1 dbbf eec7 99bf
00000050: b3eb b93e ad80 823f 5460 0240 271b 42bf
00000060: d5e0 71bf a887 01c0 1dc4 84bf 4d2a b13e
00000070: 657c d9bf 278e 8abe
-1.6710082 1.5045506 0.33908787 -0.35983258 0.88735336 -1.4297408 -0.45003176 -1.3216401
-1.3414212 -0.9042212 0.8366686 0.8503999 -2.824574 0.71260744 1.6524622 -1.8725705
-1.670747 0.77279115 -1.7163432 -1.2014139 0.36312637 1.0195519 2.0371294 -0.7582268
-0.9448369 -2.0239048 -1.0372349 0.34602585 -1.6991087 -0.2706158

bias f4 [15]
00000000: f5df 4ac0 0698 ee3e d400 96bf dba5 7b3f
00000010: f6d0 41c0 fc20 05c0 fc09 433f 3a17 7ac0
00000020: 791c 0140 08ce 9440 c851 633f 151f 2a40
00000030: 909f a3bd c2ee 90be d79f 22c0
-3.1699193 0.4660036 -1.1719003 0.9829995 -3.028379 -2.0801382 0.7618711 -3.9076676
2.0173628 4.6501503 0.88796663 2.658147 -0.079894185 -0.28307158 -2.5410058

weight f4 [15, 15]
00000000: 50f6 19bf 9894 0b3f e125 673f f4dc 833d
00000010: 088f cb3e 6180 fe3f 9100 6b3f a6ce c1be
00000020: 164a b1bf 3f98 b9bf 1042 973e 0638 c3be
00000030: 75d5 70bf b36e 93be 48a5 98be abb4 4cc0
00000040: 2682 993f 36f7 7c3e 93cb da3f 789f 68c0
00000050: 96cd 8e3d 0996 0dbf 28b4 813f 21e3 63bf
00000060: a32f a1bc 3e22 f83f e425 4b3f 2eae 933f
00000070: 1272 60be e30e 0abf 9cc8 813f a98a f2be
00000080: b7f5 3ebf b200 863f 6cc0 3bbe 5ae2 1abf
00000090: 9852 f8be 9a88 bbbf 0f48 0e3f bde0 6a3f
000000a0: 7e07 5b3e 8872 38bf 822b cbbd 0da1 2f3f
000000b0: bb85 453f 1da0 1bbf 2cbb 86bf 6d22 debf
000000c0: 04ac 74bf f3f9 f9bf 149c e43e c864 8a3f
000000d0: 9729 67c0 ce78 3340 93df 5ebf 1cbb 633f
000000e0: d11b 1a40 8d0c 21bf ca47 87bf bc83 40c0
000000f0: 3122 5a3d 00d6 9f3f 5ee6 d23f 5bc6 df3e
00000100: bcb3 f13f fa17 9dbf 7e11 b6bf 92c2 5240
00000110: fc82 eabf fa38 ff3e 9d63 35be cad5 0bc0
00000120: 4343 8d3f 91e0 883e 7aa9 5940 9fcf 343f
00000130: e273 6a3e 2c34 a7bd 550f a33e de39 63bd
00000140: 9f93 a53e 3f58 de3e fc44 1d3e 7be7 cebd
00000150: d6c3 fdbc 410c 92bd 8e29 e8bd c424 78bd
00000160: fdb8 25bf 993b 26be ea14 2dc0 86bb c03c
00000170: 9c30 96bf aa2d d33e 79f7 0a3f 95d1 033f
00000180: dc57 873e 5a99 a0bd 230f 1540 8e32 8840
00000190: b00f 9fbf b200 5a3d f32d 913f 3ff4 cfbd
000001a0: 8d67 1ebd 2e9d d839 bf84 e5bf 9c7b b63e
000001b0: 72d5 973d bb26 b7bf 6e15 813f 49b5 6f3f
000001c0: cc05 053f f4af fd3e 9bd9 afbf 775f 41bf
000001d0: 7ae6 58be 4481 103f ae37 ea3f c492 78bf
000001e0: 77cd 163f 2d69 e8be a636 8e3e 2dad 98be
000001f0: 55a8 d23e 52c8 f63e 8c10 a33d 8d38 80bf
00000200: f90e 6f3f 8cfc 1c3f a356 d3be ba89 b1be
00000210: c6fd 0dbe c17d 473f 00b8 8e3e affc 74c0
00000220: 4105 a83f 3fc8 123f b280 2a40 c481 81bf
00000230: eca3 9cbf ad53 5e3f a3ed a53c a098 3abf
00000240: c8ef b03f cbd3 d53e 0802 1740 1b9d b73f
00000250: 277b 86bf 780c 37bf 66ea 033f 98e4 80bd
00000260: 80f6 2e3e c639 7d3e e4cf 13bf 08f4 d1be
00000270: f6e5 eb3d 8ee4 22bf 0529 923f 30e0 4e3e
00000280: 3fbc 253f d538 16bf 23fb a1bd 2653 873f
00000290: 6a47 f33e b4d6 7c40 28fc f7bf ed12 f3be
000002a0: 4338 bfbf 84c4 b63f 1bf6 df3e 4828 9cbf
000002b0: 22b9 71be fa1f f43e 9f86 0fc0 8417 48be
000002c0: 2ca3 57bf 06e8 ccbe 6228 9b3f d7da 2fbe
000002d0: d5eb e1bf 0e8c 0dbe 0a5e 3340 4881 e1bf
000002e0: e8a5 f13e a62f 3640 6ed7 9b3f 4528 0440
000002f0: c758 50c0 978c 85c0 f40a dabf 4786 c03f
00000300: 0e0d 243f b28c 493e 0718 d0bf 331a 7d3a
00000310: a631 f23b 9a58 f33b c52e 78bb 9b82 0d3b
00000320: 7f2e 213c a5b5 3a3c c40c e13b e7aa 303b
00000330: 92ba 8e3b bf94 4f3b 5539 afbb fa8f 7e39
00000340: 513e a6b9 19c6 a2bb f3f2 a1bf 1b41 1d3e
00000350: 3732 063e 7fc2 5a3f 34a2 97bf 8efc 43bf
00000360: 1dcc 09bf e996 7e3f 8ba7 a7be d972 25bf
00000370: 07f8 953f 55bb 2f3f 0380 d33e 0447 2cbf
00000380: 92fb 01be
-0.6014147 0.5452361 0.90292174 0.06438628 0.39757562 1.9882928 0.9179774 -0.37852973
-1.3850734 -1.4499587 0.2954259 -0.3812868 -0.9407571 -0.28795394 -0.298136 -3.198527
1.1992843 0.24703678 1.7093376 -3.6347332 0.06972806 -0.5530706 1.0133104 -0.89018446
-0.019676035 1.938545 0.7935469 1.153753 -0.21918514 -0.53928965 1.0139346 -0.47371414
-0.7459368 1.0468962 -0.18335122 -0.60501635 -0.48500514 -1.4651062 0.555787 0.91749173
0.21389577 -0.7204976 -0.09920408 0.6860512 0.7715718 -0.6079119 -1.052587 -1.7354256
-0.95574975 -1.9529403 0.44650328 1.0812006 -3.6119134 2.8042483 -0.870599 0.8895738
2.4079478 -0.62909776 -1.0568783 -3.0080404 0.053255264 1.2487183 1.6476552 0.4370602
1.8882976 -1.2272942 -1.4224088 3.2931256 -1.8321223 0.49848157 -0.1771378 -2.1849236
1.1036152 0.2673383 3.400969 0.70629305 0.22895768 -0.08164248 0.31847635 -0.05547511
0.32339188 0.434267 0.15358347 -0.10102745 -0.03097717 -0.071312435 -0.11336051 -0.060581937
-0.64735395 -0.16233672 -2.7044015 0.023526918 -1.1733584 0.41245776 0.54283863 0.5149167
0.2643422 -0.078417495 2.3290489 4.256171 -1.2426662 0.05322332 1.1342148 -0.10154008
-0.038672972 0.00041315838 -1.7931136 0.3564118 0.07413758 -1.4308695 1.0084665 0.93635994
0.5196197 0.49548304 -1.3738283 -0.7553629 -0.2118167 0.56447244 1.8298242 -0.97098947
0.58907264 -0.45392743 0.27776068 -0.29819623 0.41144052 0.48199707 0.079621404 -1.0017258
0.9338222 0.61322856 -0.41277036 -0.3467539 -0.13866338 0.7792626 0.27874756 -3.8279226
1.3126603 0.573368 2.664105 -1.0117726 -1.2237525 0.8684643 0.020254916 -0.7288914
1.3823175 0.41763148 2.359499 1.434482 -1.0506333 -0.715034 0.5152954 -0.06293601
0.1708622 0.2472907 -0.5773909 -0.41006494 0.11518471 -0.63629997 1.1418768 0.20202708
0.64740366 -0.5868047 -0.07909229 1.057225 0.47515422 3.9506044 -1.9373827 -0.47475377
-1.4939045 1.4278722 0.4374245 -1.2199793 -0.23605779 0.47680646 -2.2425916 -0.1954022
-0.84233356 -0.4002077 1.2121699 -0.17173325 -1.7650095 -0.13822958 2.8026147 -1.7617579
0.4719689 2.8466582 1.2175119 2.0649579 -3.2554185 -4.173412 -1.7034593 1.5040978
0.6408242 0.19682577 -1.6257333 0.0009655088 0.0073911725 0.0074263336 -0.0037869674 0.002159274
0.009837746 0.0113958465 0.006867977 0.0026957334 0.004355737 0.0031674353 -0.0053474107 0.00024276963
-0.00031708417 -0.0049674627 -1.2652267 0.15356867 0.13105093 0.8545303 -1.1846375 -0.7655724
-0.5382708 0.9944902 -0.32745013 -0.6462837 1.1716317 0.6864522 0.41308603 -0.6729586
-0.12693623

bias f4 [15]
00000000: d7e3 eebe 25f8 c6be 8576 193e 2bae 81bf
00000010: f613 e53e 3387 c73e 17e9 19bf b6de 95bd
00000020: a32c d5be dbf0 87be ba3e 0bbf f5e1 e83e
00000030: 1a2b c43f 3cc2 a63b f01c 233e
-0.46658203 -0.38861194 0.14986618 -1.0131277 0.4474179 0.38970336 -0.6012129 -0.07317869
-0.41635618 -0.26550946 -0.5439259 0.45484892 1.5325654 0.0050890725 0.15929008

weight f4 [1, 15]
00000000: f38d 81bd 07d2 733d 5d07 5f3e 0785 c7bd
00000010: 44b7 ddbd ce46 cc3c 5428 65bd 40c5 ccbc
00000020: fcd6 a4be d1b1 dc3d 52c9 873e 1eaa cf3d
00000030: bde7 98bd a544 f838 7565 263e
-0.06325903 0.05952647 0.21780153 -0.0974217 -0.10825971 0.024936106 -0.055946663 -0.0249964
-0.3219527 0.10776103 0.26520783 0.10139869 -0.074660756 0.000118383476 0.1624964
