VDP_ZK/Van der Pol_NN_Lyap_layer_2_width_15_samples_90000_lr_0.001_epoch_300_10000.pt (torch, 5239 bytes, 5 tensors)

weight f4 [15, 2]
00000000: 2894 0440 95a6 27c0 fcac 3f3e be97 94bf
00000010: dc14 f4bf 3f13 2d40 5b1b 0340 f2d0 2fbf
00000020: d569 d93e 2a1f a9bf 1585 4e3d 1417 943f
00000030: 37a4 d33e b70c a33f 486e f83f 6d75 77bf
00000040: 969f e03f 647b aebf 0927 d8bf 4773 b9be
00000050: 166f 763f e3d2 9bbe bb18 2fc0 f388 573f
00000060: af91 0240 9dfc e5bf eed6 04c0 e0b5 83bf
00000070: 4eaa fbbf 94ef 08bf
2.0715427 -2.6195424 0.18718332 -1.1608808 -1.9068866 2.7042997 2.0485446 -0.686782
0.42463556 -1.3212636 0.050419886 1.1569543 0.41336223 1.2738255 1.9408655 -0.9666355
1.7548702 -1.3631406 -1.6886913 -0.36220762 0.96263254 -0.3043433 -2.7358844 0.8419334
2.0401418 -1.7967716 -2.0756183 -1.0289879 -1.9661348 -0.5349057

bias f4 [15]
00000000: 56ec 9b40 8d23 de3f 17cd b440 3646 16c0
00000010: 6ab7 06c0 5bb1 863f eceb 35bf afb4 2340
00000020: 35b2 3ec0 6002 f43d d595 a03d eab9 29c0
00000030: 935d 6540 8361 8f40 e620 6bc0
4.8725996 1.7354599 5.6500354 -2.3480353 -2.1049447 1.0522875 -0.71063113 2.557903
-2.979627 0.119145155 0.07841078 -2.6519723 3.5838363 4.4806533 -3.673883

weight f4 [15, 15]
00000000: 399c 833f 6a0c 963e efad dbbe d7ec aa3e
00000010: b731 80bd 0aec 413f 01a1 793e 5bbb 5dbd
00000020: a849 88bd 2b4d 433e 3dae d43e 35fa fdbd
00000030: d184 793e 12f9 cd3f 11ee c8be 0a4c efbf
00000040: b6b9 32bf 9041 15c0 66a3 863f 78f7 fe3f
00000050: 2f01 bbbf ffde 0f3e 0201 c53f 14a6 c63f
00000060: cc72 d4bf 8413 923e c089 bdbf 7dd7 b43f
00000070: 4457 78c0 3814 ca3f aecb ddbd 4978 68bf
00000080: d037 07bf 9242 513f a839 7c3f eadb c1bf
00000090: b5e4 b13f ccf6 9cbd ab06 ae3f 9680 42bf
000000a0: 3413 0c3f d16f 43bf b6fd c8be 4fe1 aabf
000000b0: 0cdb aebf e954 1940 d4e8 4f3f 5e8e 4b3f
000000c0: 5a50 b33e a611 05be 9b57 30bf a00b 87bf
000000d0: 1bd9 fb3d 9b98 abbe bf9c 5e3e 3e09 993e
000000e0: 7c9b b5bf 029e 3140 589a 3d40 fb15 c9be
000000f0: e7db 773e 7567 8cbf 18dd 0c40 0025 683f
00000100: 8b79 eabf f97d f03f 03d0 05bf 1a4c a53f
00000110: b749 bebe 8e64 bcbd a430 8b3f 5546 5bbf
00000120: bfb9 783f 7591 0a3e 1b7d 35c0 7f83 653d
00000130: d6b5 313f 1d9b 803f 8224 6ebe 05ca 16bf
00000140: f0c1 3d3f d3ec 72bf 2708 21bf 2f60 69bf
00000150: 355f a63e 8d38 2dbf 3b62 133f 0750 16bf
00000160: 59ca 6a3f 6010 513f e1e5 51be a334 b63e
00000170: 4a21 5e3d 7309 4d3d 456d d1be 6b95 89bf
00000180: 67d0 b7be ceea b33e 9832 0f3f 7d0a 963e
00000190: 030e 1840 f251 053f b003 893e f024 44bf
000001a0: 2ec2 efbe c1a3 d5be 87ef b9be 7880 0c3f
000001b0: 4e9a 7bbe b05a f63d 5d17 17bf b10b ae3e
000001c0: 34a1 d1be 074a 38bf f3b3 543d f237 98bf
000001d0: ecaa a33d 1744 173a 641a ca3b 40b2 323f
000001e0: bfa0 053f 2a90 c5be fb91 fcbe 7d17 1fbd
000001f0: 4a8a a5be 50b8 17be 164f 07bf d555 3d3e
00000200: f67a be3e 20e7 163f d8d7 0d3f a563 b2bd
00000210: 0aff 213e 5404 e3be b32d 9dbf c315 ae3e
00000220: a2a3 3fbf da3a 26bf 63b4 d63e 42fc 163f
00000230: 8390 23bf 6131 863e e63c ea3e df36 163f
00000240: 0607 f5bd 395f d43f d10c 7bbe e281 2f3f
00000250: 5c26 30be 7020 e8be 42d6 463f 18bf 633f
00000260: 435b bbbc 1000 273f 8c23 95bf 8008 5f3f
00000270: f727 edbd be5f 373f 0ca7 7f3f 7cfd 26be
00000280: 9550 953f 7af9 1dbe 0293 973d f1ec 3fbf
00000290: a5ad 35bf a531 803b da5d f0bb 9c95 573b
000002a0: 8202 443b f9a3 d03c a2bd 4c3c ddd6 08bc
000002b0: d484 88bc 302e 80bc d065 faba b167 883b
000002c0: 9a49 91ba 7814 c93a 8267 98bb 5047 fcbb
000002d0: a174 0340 dc64 273f 3687 1d3e 171f 963d
000002e0: 581f 343e f4ec 093f 54c5 9abf b90c 673f
000002f0: f763 69be e4f5 a73f e48c 0cbf 5d6c 10c0
00000300: fe98 bc3f ac18 9b3f e6f7 383e 4f4f 6a3f
00000310: d0cc fd3f 4194 c13f 3ac2 07c0 cae1 51c0
00000320: b72d ab3f d0b4 d2be 53c2 7dbf 08bc a0bf
00000330: d665 823f cfa2 6a3b 7644 8d3f fb68 7ebf
00000340: 7b25 5340 b1db 513f 5dfd ee3e 88ef 303e
00000350: 0b1f 3fbf 133b 14bf 36a6 2540 1c13 21c0
00000360: 6f2b b0bd 07b0 e6bf 3b05 97be 5969 ea3e
00000370: 66fd 56bd 18aa d03f 8806 97bf 9a91 c0be
00000380: fef6 fd3f
1.028205 0.29306346 -0.42906138 0.3338382 -0.06259482 0.7575079 0.24377824 -0.054133754
-0.06654674 0.19072406 0.41539183 -0.12401239 0.24367072 1.6091635 -0.3924413 -1.869508
-0.6981462 -2.3321266 1.0518615 1.9919271 -1.4609736 0.1404991 1.5390933 1.5519433
-1.6597533 0.28530514 -1.4807663 1.4128262 -3.8803263 1.578742 -0.108298644 -0.9080854
-0.5281954 0.81742203 0.98525476 -1.5145237 1.3897921 -0.0766426 1.3595785 -0.75977457
0.547168 -0.76342493 -0.39256066 -1.3350009 -1.3660598 2.3958075 0.8121464 0.7951411
0.3502224 -0.12995014 -0.68883675 -1.0550423 0.12297269 -0.33514866 0.21739481 0.29889864
-1.4188075 2.775269 2.9625454 -0.39274582 0.2420498 -1.0969073 2.2009945 0.9068146
-1.8318342 1.8788444 -0.52270526 1.2913849 -0.37165615 -0.09198867 1.0874219 -0.85654193
0.97158426 0.1353205 -2.8357608 0.056033608 0.69418085 1.0047337 -0.23256114 -0.5890201
0.7412405 -0.94892615 -0.62903064 -0.9116239 0.32494512 -0.67664415 0.5757176 -0.5871586
0.9171501 0.8166561 -0.20497848 0.35587034 0.054230966 0.05005784 -0.4090368 -1.0748724
-0.35901186 0.3514008 0.55936575 0.29304877 2.3758552 0.52078164 0.26760626 -0.7661886
-0.46827835 -0.41726497 -0.36315557 0.5488353 -0.24570581 0.12029016 -0.59020025 0.33993295
-0.409433 -0.71987957 0.051929425 -1.1892073 0.07991585 0.0005770339 0.006167697 0.6980324
0.52198404 -0.3858655 -0.49330124 -0.03884076 -0.3233207 -0.14816403 -0.5285505 0.18489774
0.37203187 0.5894642 0.55407476 -0.08710412 0.15819946 -0.4433924 -1.2279571 0.34000978
-0.7485906 -0.6493355 0.419345 0.58978665 -0.6389238 0.26209548 0.45749587 0.58677477
-0.1196423 1.659156 -0.24516608 0.6855756 -0.17202133 -0.45337248 0.7767068 0.8896346
-0.022870665 0.6523447 -1.1651473 0.87122345 -0.11579888 0.71630466 0.9986427 -0.16307634
1.1665217 -0.15427199 0.074010864 -0.7497092 -0.70968086 0.003912168 -0.0073354067 0.003289557
0.0029908721 0.025468813 0.012496384 -0.008352009 -0.0166649 -0.015647024 -0.0019103829 0.0041627516
-0.0011084557 0.0015341183 -0.004651011 -0.007698931 2.0539935 0.65388274 0.1538361 0.07330149
0.17590082 0.53877187 -1.209147 0.9025379 -0.2279204 1.3121915 -0.5490248 -2.256614
1.473419 1.2116904 0.18063316 0.91527265 1.9828129 1.5123369 -2.1212296 -3.279406
1.3373326 -0.41153574 -0.9912464 -1.2557383 1.0187328 0.0035802608 1.1036518 -0.9937894
3.2991626 0.8197585 0.46677676 0.17278874 -0.7465674 -0.5790264 2.5882697 -2.5167913
-0.08602034 -1.8022469 -0.29496178 0.457835 -0.052487753 1.6301908 -1.1798868 -0.37611085
1.9841001

bias f4 [15]
00000000: 1fd0 173f c217 ef3f 2647 3e3f a269 f53e
00000010: b861 2b3e 78c4 eebe 9239 bfbe 036c 373e
00000020: 0bc6 dfbd da2d 46be 7dd4 ed3e 4f4f 1ebc
00000030: 5578 e83d 1d54 d0bf 929d b8be
0.5930194 1.8679125 0.74327314 0.47932154 0.16736495 -0.4663427 -0.3734861 0.17912297
-0.109264456 -0.19353428 0.46451178 -0.009662463 0.113510765 -1.6275669 -0.36057717

weight f4 [1, 15]
00000000: b299 f9bd 5a76 b53d e923 9bbd 2fff a8bd
00000010: 1c75 94bd 76d9 323e 1340 a2bd 61c0 a0be
00000020: ff15 933d b3d1 36be 90c6 093e bf7d 773b
00000030: 5505 093e 554c 083e 9bc4 eabd
-0.12187518 0.088604644 -0.07575209 -0.082517974 -0.07248899 0.17465767 -0.079223774 -0.31396773
0.0718193 -0.17853431 0.13454652 0.003776416 0.1338094 0.13310368 -0.11463281
