VDP_ZK/Van der Pol_NN_Lyap_layer_2_width_30_samples_90000_lr_0.001_epoch_200_10000.pt (torch, 8247 bytes, 5 tensors)

weight f4 [30, 2]
000000 88 11 a7 3c 2c d7 9b 3f c6 53 b8 bf ee 2e dd 3e
       0.020394102 1.217504 -1.4400566 0.43199867
000010 66 30 c4 3f 9c 74 7b 3f c4 a4 be 3f 5d 7f 9e bf
       1.532727 0.98224807 1.4894032 -1.2382618
000020 0d a3 46 bf 0d 53 3d 3e 05 09 39 bf 85 27 27 c0
       -0.77592546 0.18488713 -0.7227939 -2.611787
000030 bc a2 c5 be 94 c9 de 3d db b4 27 40 99 72 07 bf
       -0.3860072 0.10878292 2.6204135 -0.5290924
000040 37 e1 c0 3f 3d 57 54 3f 12 72 96 3f 5c f1 eb bf
       1.506873 0.82945615 1.1753561 -1.8433032
000050 88 c3 7d bf 8e 5c ec 3f e4 95 bf 3e b5 d5 d5 3f
       -0.9912648 1.8465745 0.37419045 1.6705843
000060 05 c3 a4 3e 27 78 be 3f d7 82 b6 bf 1c b3 09 3f
       0.32180038 1.4880418 -1.4258679 0.53788924
000070 6a c2 c7 bf b7 7d 0b 3f e5 25 d7 bf 4b 01 81 bf
       -1.5606205 0.544887 -1.680844 -1.007852
000080 f3 d8 fe bf a9 e4 11 3f 9d 93 23 bf 4a 3c 68 3e
       -1.9909958 0.5698953 -0.63897115 0.22679248
000090 20 1b 51 3e f9 ef 8b bd 76 97 b6 bf 60 10 bd 3f
       0.20420504 -0.068328805 -1.4264972 1.4770622
0000a0 e3 15 ba be 67 d2 c8 3f 23 c9 cb 3f 50 5e af bf
       -0.36344823 1.568921 1.5920757 -1.3700657
0000b0 36 0d 15 3e d4 d6 b3 bf be 78 a0 3f b5 70 12 be
       0.14555821 -1.4049935 1.2536848 -0.14300807
0000c0 87 b9 0b 3f 81 e1 30 be 00 66 12 bf e0 ca 20 3e
       0.5457997 -0.17273523 -0.5718689 0.1570239
0000d0 cc 8a 78 bf ae 70 73 bf 60 2d 35 bf 8c ae b9 3f
       -0.9708679 -0.9509381 -0.7077236 1.4506392
0000e0 d5 05 0c 3f bb d6 43 be 3f f1 b2 3f e3 2e 93 3f
       0.546964 -0.19124882 1.3979872 1.1498684

bias f4 [30]
000000 f6 c5 ea bf 34 2d cd bf 7b c0 85 40 f9 93 06 c0
       -1.8341663 -1.602942 4.179746 -2.1027815
000010 af a2 fe 3e 01 ba 42 3f 82 d4 4b 3b 03 d1 fc 3f
       0.49733493 0.7606507 0.0031102006 1.9751285
000020 c3 c1 65 c0 51 89 61 40 95 72 4f 40 a1 75 67 3f
       -3.5899513 3.5240061 3.2413685 0.9041386
000030 56 99 96 bf 8c 42 d0 3f 70 68 e4 bf 79 ea 63 c0
       -1.1765544 1.6270308 -1.7844372 -3.561186
000040 e0 77 0c 40 36 a6 05 bf 25 21 0e 3d 47 7e 3a 40
       2.1948166 -0.5220674 0.034699578 2.9139574
000050 f3 e9 0e 40 28 ca 32 40 12 77 14 40 8c e0 4a bf
       2.2330291 2.7935886 2.3197675 -0.7924888
000060 d5 f3 83 3e 39 79 6d bd 2f 27 13 c0 6b 3a 1b c0
       0.25771967 -0.057976935 -2.2992666 -2.4254405
000070 96 53 22 3f 06 d4 54 c0
       0.6340879 -3.325441

weight f4 [30, 30]
000000 a1 3f 70 3d 5a 35 fe bb 37 cd bf 3b 65 c9 11 bd
       0.05865443 -0.007757825 0.005853321 -0.035592455
000010 11 b9 f2 bd ed d1 0c bc 10 db 61 3e 26 7d ff b9
       -0.11851705 -0.008594972 0.22056222 -0.00048730633
000020 e5 d3 24 bc 3b 4b 87 3b 44 2f 75 3c 7b 45 dd bc
       -0.010060285 0.004128841 0.014964882 -0.02701067
000030 4e 85 5a bc b8 51 f1 bc 4f e9 b0 3c 4c b6 08 3c
       -0.013337446 -0.029457912 0.021595625 0.008344244
000040 eb 58 16 bb 9c 05 9f bd 94 39 48 bd 40 f1 0f bd
       -0.0022941183 -0.07764742 -0.048883036 -0.035142183
000050 54 4c 43 3c f7 d2 0c bb 58 78 84 3d 6b 6d 1f bd
       0.0119200535 -0.002148805 0.06468266 -0.03892271
000060 89 31 95 3d 5a c3 83 3d 28 e1 8a bb 55 ef 18 3d
       0.07284839 0.06433745 -0.0042382665 0.03733762
000070 85 1e 70 3d 30 7a 3a 3b a5 a8 98 be ba dd c1 3e
       0.058622856 0.0028454177 -0.29816166 0.37864476
000080 f1 18 ae bd 23 73 f9 be 2b 52 c6 3e 16 49 bb 3e
       -0.08500851 -0.48720655 0.38734564 0.36579198
000090 07 bd 1a 3f bc 12 a8 be fe e4 66 bf 46 64 99 3e
       0.6044468 -0.32826793 -0.90193164 0.29959315
0000a0 82 ae 10 3f b8 c7 dd 3e 50 4a 06 bf 65 e9 ad 3e
       0.5651628 0.43316436 -0.5245714 0.33967128
0000b0 41 41 21 3e 0b fb 54 be ac e1 ce bd a6 a3 24 3f
       0.15747549 -0.2079889 -0.10101637 0.6431221
0000c0 2e 73 90 be dc 0b 61 3f 12 79 20 3f d5 da 2a bf
       -0.28212875 0.8790872 0.6268474 -0.6674016
0000d0 e6 6d 9e 3e fd aa 63 bf 49 28 23 bf 20 c7 66 3f
       0.3094322 -0.8893278 -0.63733345 0.9014759
0000e0 9d 0e 7f 3d 8a 70 8c be 0d 41 cc be 11 66 3c bf
       0.062269796 -0.2742961 -0.3989338 -0.7359324
0000f0 eb 62 20 bd cd eb ac bd a6 e3 91 bc af e5 0c bc
       -0.039156836 -0.08443413 -0.017808747 -0.008599683
000100 e1 e4 9d 3d 25 43 66 3b 71 53 4c 3d 39 8b 0d bb
       0.07709671 0.0035135236 0.049884263 -0.0021597876
000110 76 5a 1f 3c c5 e4 b7 bc 8e b6 95 3b 9f bd 6c 3c
       0.009726157 -0.022447953 0.0045688814 0.014449506
000120 3f e0 58 3c 96 ee 63 bd 2a 05 79 3d 5e 68 1a bb
       0.013237058 -0.055647455 0.06079594 -0.0023560743
000130 db 05 28 3d b0 c7 6c bc f6 7c 87 3d df 54 43 bb
       0.04102121 -0.014451906 0.06615631 -0.0029805226
000140 2c dd 76 bb 2c 12 29 3b e0 4b 16 bd 1e ed 39 3d
       -0.003766845 0.0025798185 -0.036693454 0.04539215
000150 1b 58 d0 bd 59 d2 c3 bd 46 59 ee 3b fd 03 22 bd
       -0.10173055 -0.09561605 0.007273826 -0.039554585
000160 aa ee bb 3b 8d 2e a9 bb 17 4e 65 3d b5 54 af 3d
       0.005735238 -0.00516302 0.055982675 0.085610785
000170 04 f4 64 3a fc ac 52 bc 3b 9e 59 bd 7e 3f 93 3c
       0.0008733871 -0.0128586255 -0.053129416 0.017974611
000180 ff 18 d2 3d f8 6d 3e 3c 4a 0f 66 3b d0 de 7a 3b
       0.10258674 0.011622898 0.0035104328 0.003827978
000190 67 bd 6b bc 61 07 d3 3b 9a b3 1c bc 01 cd 19 bd
       -0.014388419 0.0064400886 -0.009564305 -0.037549023
0001a0 66 02 7f bd 93 7b 98 bc 2b 05 f5 3c ab 37 bc 3d
       -0.062258147 -0.018613612 0.02990969 0.09190305
0001b0 cf b2 ca 3c 6c 42 73 3b e4 76 4e 3c 2f 61 6d 3c
       0.024743466 0.0037118448 0.012601588 0.014488502
0001c0 34 3a 59 3d 14 3e 02 bc 7d 56 0b 3e cf 93 75 3d
       0.053034022 -0.007949371 0.13607211 0.059955414
0001d0 9b 9c d2 3c 4b 60 1a 3d 27 33 6a 3d b6 2b 0a bc
       0.025709441 0.03768949 0.05717769 -0.008433273
0001e0 7c ad c0 3b 41 f0 24 ba bd f9 38 bc 20 5c 91 ba
       0.005880056 -0.0006291904 -0.011290011 -0.0011090077
0001f0 17 1f ee 3c 95 d5 89 bc 08 13 14 bd 03 80 53 bc
       0.02906756 -0.016825477 -0.036150962 -0.012908938
000200 b0 1f 32 bb 24 f3 80 bc 4e 39 0f bc 53 f3 86 3b
       -0.0027179532 -0.015740938 -0.00874169 0.004118362
000210 e2 22 23 bc fd c5 43 3c f7 25 6b bc 98 55 07 3c
       -0.009957047 0.01194906 -0.014352313 0.008260153
000220 39 80 e1 bb c1 e8 4a 3d b2 21 55 bc 64 14 4a 3c
       -0.0068817404 0.049538378 -0.013008522 0.012333963
000230 a4 c1 61 3b 28 43 ae 3b da 97 d5 3b 8a 3b 9c bc
       0.0034447694 0.0053180642 0.0065183463 -0.01907136
000240 6f 79 15 bd 3c 5e 0a be 4d 03 99 bb f1 5c c4 bc
       -0.03649276 -0.1351251 -0.004669583 -0.0239701
000250 b6 f0 fc ba de 37 21 3c 2b 8c 95 be 61 18 2d 3e
       -0.0019297812 0.00983998 -0.29208502 0.16903831
000260 06 7f bc be 8e 98 79 bf fd ec c8 3e e1 89 18 3f
       -0.3681566 -0.97498405 0.39243308 0.59585387
000270 68 7e b2 3e e3 97 b0 bf ef 54 98 bf 29 63 10 be
       0.34862065 -1.3796352 -1.190092 -0.14100327
000280 e0 17 5e 3f 0b 3b 2f 3f 47 4a be be 14 25 1d 3f
       0.8675518 0.6844947 -0.37166044 0.613847
000290 10 28 2d 3f ac 30 1c bf 04 9e 34 3f c8 a6 fd 3e
       0.67639256 -0.6101177 0.7055361 0.49541306
0002a0 ed 71 cf be 80 4b 87 3f 13 81 32 3f b5 04 3f bf
       -0.40516606 1.0569916 0.697282 -0.7461656
0002b0 4d 06 31 3f 2c dc e4 3e 4a 11 0e bf 9a 5c 00 3f
       0.6915024 0.44699228 -0.5549513 0.501413
0002c0 49 a9 2d bf a2 0e 88 3d bb 05 a9 bd ed b2 a1 bf
       -0.67836434 0.06643416 -0.08253046 -1.2632729
0002d0 3c 3c 3a bf 26 c4 a2 bf e2 ba 13 3f d7 f9 5b 3e
       -0.7274816 -1.271611 0.57707036 0.21482025
0002e0 19 03 27 bf c6 ee 81 3f 3d 5e d2 be ad 96 13 3f
       -0.652391 1.0150993 -0.41087523 0.5765179
0002f0 d6 bf 2b 3f be a6 b2 3f 5e b6 bd 3f 66 04 1f 3f
       0.67089593 1.3957136 1.4821279 0.62116086
000300 af 84 e8 be fc 91 66 bf 9f ee 9b bf ff 81 c0 bf
       -0.4541373 -0.90066504 -1.2182196 -1.5039672
000310 7f c7 61 bf 07 cf 9d be 2b 19 8f 3e 9a 31 80 bf
       -0.8819503 -0.30822012 0.2794889 -1.0015137
000320 a3 4b ae 3f 1d ef c1 3f 61 dd 59 3f e9 57 25 3f
       1.3616832 1.5151097 0.8510342 0.64587265
000330 1e 4e b1 3e 68 04 ff be 58 ea f3 bf 06 04 b4 bf
       0.3462991 -0.4980805 -1.9055891 -1.4063728
000340 b9 d0 30 3e 43 dc a4 bf a3 50 23 bf 8b 8a 00 bf
       0.17267121 -1.2879719 -0.63794917 -0.502114
000350 0e 24 6c 40 23 68 1f be db 2c 88 bf df 47 fa 3e
       3.6897006 -0.15567069 -1.0638689 0.48882958
000360 8e ba b7 bf 44 e1 f4 3e 26 08 d6 3e d5 5d 73 3f
       -1.4353807 0.47828114 0.41803092 0.9506505
000370 7c 88 28 3f 0d e8 24 bf 29 10 36 bf 2e 09 66 bf
       0.6583326 -0.6441658 -0.7111841 -0.8985776
000380 93 93 34 bf bc 20 dc bf a6 c2 8f bf 1b ee b5 bf
       -0.7053768 -1.719749 -1.1231277 -1.4213289
000390 90 c9 d3 3f 77 31 3a 3d 14 57 c6 3f de b1 0f 40
       1.6545887 0.04545733 1.5495324 2.2452312
0003a0 76 1c f2 3e 37 dd 5a 3f 76 e5 13 40 7b 93 ef bf
       0.4728734 0.854938 2.3108802 -1.8716882
0003b0 34 95 92 bf 34 06 ca bf 77 03 9f 3f 3c 25 a8 bc
       -1.1451783 -1.5783143 1.2422932 -0.020525567
0003c0 ca 7a ae be e0 cd bd bc 75 0c 31 3e 36 c8 2a 3f
       -0.34078056 -0.023169458 0.17289908 0.6671175
0003d0 22 23 b0 be 01 25 a8 3c eb 65 51 be 3e f0 7a 3e
       -0.34401804 0.020525457 -0.20449035 0.24505708
0003e0 18 c0 3e 3f e2 3b 0d 3f 57 83 08 3e e3 f2 2f 3f
       0.7451186 0.551695 0.13331352 0.6872999
0003f0 8b 3d 0f be 8e a6 85 bd 01 45 8e be 09 b7 dc be
       -0.1398832 -0.065259084 -0.2778702 -0.43108395

bias f4 [30]
000000 db 41 09 bc 0e f8 bb 3e 2f 44 6e 3c 9b 87 44 3b
       -0.008377518 0.36712688 0.014542623 0.0029988054
000010 42 4b 32 3c 4d fd 99 3d b0 a7 aa bf 93 ad 53 bf
       0.010882201 0.075190164 -1.3332424 -0.8268673
000020 0b b0 15 3e c0 9b 35 bf 65 bb fe bd fa 9f 24 3d
       0.14617936 -0.7094078 -0.124380864 0.040191628
000030 ac 80 c7 ba 13 ec 9f 3d 2f c8 21 3d ff 2a cb bc
       -0.0015220842 0.078086995 0.03949755 -0.024800776
000040 36 a6 a0 3f 42 90 b5 ba fb c9 ae bb bc 8a 00 c0
       1.2550724 -0.0013852196 -0.0053341365 -2.0084677
000050 e0 2d d5 bd b7 ca 2f 3e 22 5c 48 3d b6 04 85 3e
       -0.104091406 0.17167173 0.04891599 0.25980157
000060 f8 6e a3 be 26 7a 10 be 2d c3 a0 be ea 3b c5 bb
       -0.319206 -0.14109096 -0.31398907 -0.006019105
000070 fb f9 c1 3d 9d 6e 84 bf
       0.09471508 -1.0346256

weight f4 [1, 30]
000000 7c 68 ae ba 44 4a a5 3d 4f 4b 7b 3a a8 2e ba ba
       -0.0013306285 0.08070806 0.0009586112 -0.0014204578
000010 e7 b0 fb 3a 62 da 92 3d aa 8f 03 3e d0 9d e3 bb
       0.0019202501 0.071705595 0.12847772 -0.006946303
000020 ad da 05 3e 79 8e 5f bc 59 eb 4c 3d 79 4e e3 3d
       0.130717 -0.013644808 0.050029133 0.11098952
000030 18 d7 49 39 c6 93 4b 3d 1e e0 75 3d 9c c1 13 ba
       0.00019248982 0.049701475 0.060028188 -0.0005636455
000040 6d a6 06 be 1e 58 9d 3a b9 84 0e 3a 79 34 94 bd
       -0.13149424 0.001200441 0.00054366473 -0.07236571
000050 23 fd 6b 3d 6c 06 c7 3d ec e1 a6 ba a3 4e 6d bd
       0.057614457 0.09718022 -0.0012732125 -0.057936322
000060 1b c3 b1 3d 14 d2 49 bd d2 a4 90 bd 08 32 8b 39
       0.086797915 -0.04927261 -0.07062687 0.00026549422
000070 9b b9 69 3d ef 3f 5f bd
       0.057061773 -0.05450433
