VDP_ZK/Van der Pol_NN_Lyap_layer_2_width_15_samples_90000_lr_0.001_epoch_300_40000.pt (torch, 5239 bytes, 5 tensors)

weight f4 [15, 2]
0	0x3e4e9de1	0.20177414
1	0xbf9e64be	-1.2374494
2	0x3f8bd512	1.0924399
3	0xbe95ce6a	-0.29259044
4	0x3fd9b35a	1.7007859
5	0x3f709b43	0.9398691
6	0x3f2623d3	0.64898413
7	0xbdf8b48b	-0.12143811
8	0xbfa615d1	-1.2975408
9	0x3f0d7f32	0.5527221
10	0xbef3af0d	-0.4759449
11	0xbfe8ef88	-1.8198099
12	0x3edcbf8b	0.43114886
13	0x3fbd3c48	1.4784021
14	0x4005126c	2.0792494
15	0xbf3481c4	-0.70510507
16	0x3e6f4c74	0.23369008
17	0xbf999ea9	-1.2001544
18	0x3fc5a353	1.5440468
19	0xbfc4d7b2	-1.5378325
20	0x3f9a489e	1.2053411
21	0xbffc6882	-1.9719393
22	0x3ff70be5	1.9300505
23	0xbf199ccd	-0.60004884
24	0xbff1b60f	-1.8883685
25	0xbf8aac31	-1.0833799
26	0x3fe85620	1.8151283
27	0xbfb93729	-1.4469959
28	0x4004988e	2.0718112
29	0x3d19492c	0.037423298

bias f4 [15]
0	0xbfde41fe	-1.7363889
1	0x4015714a	2.3350396
2	0x4062ffa8	3.546854
3	0xbe15bd69	-0.14623035
4	0xbe0740fd	-0.13208385
5	0xbf885cfb	-1.0653375
6	0xbf64ecc4	-0.89423776
7	0xc0159525	-2.337228
8	0x3fe87f0a	1.8163769
9	0x40443247	3.0655687
10	0xc0719647	-3.7747972
11	0x4010b096	2.260778
12	0x408cdded	4.4020905
13	0xc04a0911	-3.1568034
14	0x4005156e	2.079433

weight f4 [15, 15]
0	0xbfe0933e	-1.7544935
1	0xbfcc013d	-1.5937878
2	0x3f6cfc2a	0.9257227
3	0xbf8face2	-1.1224635
4	0xbf101f76	-0.56298006
5	0x3e2f1edb	0.17101614
6	0xbea1262e	-0.3147444
7	0xbf5edb8e	-0.87053764
8	0x3f3e731e	0.74394405
9	0x4000957f	2.0091245
10	0xbf350f36	-0.70726335
11	0x3ebede06	0.37278765
12	0x3fd8aa7d	1.6927029
13	0xbf8617e9	-1.0476047
14	0x3e8a12da	0.26967508
15	0xbf08c83c	-0.53430533
16	0xbf1811c9	-0.5940214
17	0xbe7ef637	-0.24898611
18	0xbfb6b9d3	-1.4275459
19	0x3e51a76a	0.2047402
20	0xbed49c5e	-0.4152555
21	0xbd2877f1	-0.04113001
22	0xbf9e54a1	-1.2369577
23	0x3f82950d	1.0201737
24	0xbf89431d	-1.0723606
25	0xbf01d896	-0.5072111
26	0xbee14075	-0.4399449
27	0x3e9c3a4d	0.3051323
28	0x3e4d587c	0.20053285
29	0xbf1dbe9e	-0.61618984
30	0xc00d88f0	-2.211483
31	0xbf0b016e	-0.54299057
32	0x40300e6f	2.750881
33	0x3f339642	0.7015115
34	0x3ea6803e	0.32519716
35	0xbf905a5b	-1.1277574
36	0xc014cfb7	-2.325178
37	0x3fbcb2fe	1.4742124
38	0x403a50fc	2.911193
39	0x401be45a	2.4358125
40	0xbf6862fe	-0.9077605
41	0x403b8a2a	2.9303079
42	0x3f21b158	0.6316123
43	0x400bc644	2.1839762
44	0x3f3cb65f	0.73715776
45	0xbbac168a	-0.0052517103
46	0xbb3307b2	-0.002731782
47	0xbb99b29e	-0.0046904823
48	0x39891c4e	0.00026151765
49	0x3bdcbd04	0.0067363996
50	0x3c56d8b4	0.0131131895
51	0x3b84142f	0.0040307264
52	0x3c7b469a	0.015336657
53	0x3c146ea1	0.009059579
54	0xbbe07da2	-0.006850914
55	0xbbfbc7d5	-0.007683734
56	0x3b8c807c	0.0042877775
57	0x3a9aee0c	0.0011820211
58	0xbc1b1214	-0.009464759
59	0x3ad78299	0.0016442119
60	0xbfbeb187	-1.4897927
61	0xbfbbe602	-1.4679568
62	0x3fbd6e65	1.4799315
63	0xbe7d0d1f	-0.24712037
64	0xbf7dcd60	-0.991415
65	0xbf922c17	-1.1419705
66	0xbfbfdaee	-1.4988687
67	0xc01ed167	-2.481531
68	0x4001a32a	2.0255837
69	0xbf91ec8b	-1.1400312
70	0xc00e86ed	-2.2269852
71	0xbfa9e037	-1.327155
72	0x401d5814	2.4585009
73	0xbff3878a	-1.9025738
74	0xbfd5df2d	-1.6708733
75	0xbfc4f0a3	-1.5385936
76	0xbf67633e	-0.90385807
77	0x402e4f98	2.723608
78	0x3fe2b07f	1.7710112
79	0xbf16099e	-0.58608425
80	0xbfa93d03	-1.3221744
81	0xc006ee43	-2.1082923
82	0x40065e61	2.0995104
83	0x400d50f3	2.2080657
84	0x403f18b7	2.9858835
85	0xbfde9f80	-1.7392426
86	0x4002c387	2.043184
87	0x40100a5d	2.2506325
88	0x3ee2cbcb	0.44296107
89	0x3f44f80e	0.76941
90	0x3fca1388	1.578721
91	0xbf4d4886	-0.80188787
92	0xbee95ed9	-0.45580176
93	0xbfb95940	-1.4480362
94	0x400142ad	2.0196946
95	0xbf8a08d3	-1.0783943
96	0xbf80803f	-1.0039138
97	0xbf097e2b	-0.5370814
98	0x3f4dd2b7	0.8039965
99	0xbfbac765	-1.45921
100	0x3fe98544	1.8243794
101	0xbf6e3f7f	-0.9306564
102	0xbe27815b	-0.16357939
103	0xbf907060	-1.1284294
104	0x3fb8461e	1.4396398
105	0x3f1b28f1	0.60609347
106	0xbf32a32b	-0.69780225
107	0xbf83b3eb	-1.0289282
108	0xbf8a0332	-1.0782225
109	0xbeab4871	-0.33453706
110	0x3ef12035	0.47094885
111	0x3f6926f3	0.91075057
112	0xbeac5187	-0.3365595
113	0xbf85b9bd	-1.0447308
114	0xbf4a434c	-0.79008937
115	0x3e708c74	0.23491079
116	0xbf3485e3	-0.70516795
117	0x3f2ea993	0.682275
118	0xbff04360	-1.8770561
119	0xbeb7335a	-0.35781366
120	0x3f0e698f	0.5562982
121	0x3e537269	0.20649113
122	0x3d7a46a5	0.061102528
123	0x3f866b4f	1.0501498
124	0xbf916954	-1.1360269
125	0x3e3d5fa4	0.18493515
126	0xbea971f5	-0.33094755
127	0x3ec9a2a0	0.39381886
128	0xbe9baecb	-0.30406794
129	0x3dc553d8	0.096351326
130	0x3f31c81b	0.6944596
131	0xbe139747	-0.14413176
132	0xbf28ff24	-0.66014314
133	0x3ed13976	0.40864152
134	0x3f5c6b71	0.8610144
135	0xbbe4469e	-0.006966426
136	0x3c307ccb	0.01077194
137	0x3b0adcc3	0.0021188713
138	0xbb478d8d	-0.003044936
139	0xbbbe563b	-0.0058086193
140	0xba5ea463	-0.00084931235
141	0x3b2501b1	0.002517801
142	0xbc105ad9	-0.008810722
143	0x3ba701a5	0.0050966316
144	0xbb0aed9c	-0.0021198755
145	0x3c0a2d75	0.008433689
146	0xbc3458ac	-0.011007469
147	0xbb8a3f73	-0.0042189895
148	0x3b95be82	0.0045698294
149	0x3b6376de	0.0034708302
150	0xbc0ab622	-0.008466275
151	0x3b9cbceb	0.004783263
152	0xbb0138ea	-0.0019717761
153	0xbc09818c	-0.008392703
154	0xbc041501	-0.008061648
155	0x3a9f0280	0.0012131482
156	0xbb980c4a	-0.004640137
157	0x3c64c37b	0.013962622
158	0xbaa4df86	-0.0012578822
159	0xbb0c9eff	-0.0021457074
160	0xbc30bf8d	-0.010787857
161	0xbaf41a75	-0.0018623607
162	0x3b2add75	0.002607194
163	0x39ffbe1a	0.00048779027
164	0xbc1ce926	-0.009577071
165	0x3fa5ba88	1.294755
166	0x40175267	2.3644044
167	0xbfc6ce91	-1.5531789
168	0x3f7b2d8d	0.9811638
169	0xbe20f314	-0.15717727
170	0x3f8ecc2a	1.1156056
171	0x3fbebab0	1.4900723
172	0x3ff0e57e	1.8820035
173	0xbfbd1ad2	-1.477381
174	0xbfcae29c	-1.5850406
175	0x4014d0b7	2.325239
176	0x4000c88b	2.0122402
177	0xc03d8c5e	-2.9616923
178	0x400f468a	2.2386804
179	0xbd5c9b4e	-0.053859048
180	0xbf67ce0e	-0.9054879
181	0x3ecf2017	0.4045417
182	0x3f1b815a	0.6074425
183	0x3ecf0189	0.4043086
184	0xbf3b5d2e	-0.73189056
185	0xbe858fe9	-0.26086357
186	0xbedb1ef7	-0.42797062
187	0x3f6897c9	0.90856606
188	0x3c9ab054	0.018882908
189	0x3f13c87d	0.57727796
190	0x3eced430	0.4039626
191	0x3f01687c	0.50550056
192	0x3e0eccc0	0.13945293
193	0x3f317635	0.69320995
194	0xbd6b709d	-0.057480443
195	0xbddad0b7	-0.106843404
196	0x3d36280d	0.04447179
197	0xbe8488aa	-0.25885516
198	0xbef1c05a	-0.47217065
199	0x3f11f3b5	0.5701249
200	0xbe9be542	-0.30448347
201	0xbf44b280	-0.7683487
202	0xbe887ab4	-0.26656115
203	0x3f21e515	0.63240176
204	0xbe90e277	-0.2829778
205	0xbf3ef75f	-0.7459621
206	0xbf1c776b	-0.6111972
207	0x3f1a95e0	0.6038494
208	0xbf262249	-0.64896065
209	0xbeb8e060	-0.36108685
210	0xbe0e4b1a	-0.13895836
211	0x3f242bdf	0.6412944
212	0xbd8b2289	-0.067936964
213	0xbeec6e5b	-0.46177945
214	0xbe298461	-0.16554405
215	0xbc4f4a41	-0.012651981
216	0x3e4402e8	0.19141734
217	0x3e43ec70	0.19133162
218	0x3ddd524d	0.10806713
219	0xbe1fbf94	-0.15600425
220	0x3dd76367	0.10517006
221	0x3d7c9699	0.06166706
222	0x3e3c66c7	0.18398581
223	0xbda547d2	-0.08070339
224	0x3dde79cb	0.10863074

bias f4 [15]
0	0xc02b101b	-2.672858
1	0xbe019e4a	-0.12658039
2	0xbfd93f0a	-1.6972363
3	0xb97f7356	-0.00024361661
4	0xbf9b4efc	-1.2133479
5	0xc0152d58	-2.3308926
6	0x3ca13a53	0.019681131
7	0xbe66d43b	-0.22541897
8	0xbea40088	-0.32031655
9	0xbb54d654	-0.0032476382
10	0xbaaf9780	-0.0013396591
11	0x40027a1c	2.038703
12	0xbea09da5	-0.31370273
13	0xbc4cf702	-0.012510063
14	0xbf1e0bf5	-0.61736995

weight f4 [1, 15]
0	0xbcbf706e	-0.02336904
1	0x3df00b49	0.117209025
2	0x3e3268c7	0.17422782
3	0xbae3a8c0	-0.0017369017
4	0x3e189938	0.14902198
5	0xbdf5b215	-0.11996857
6	0xbccb004c	-0.024780415
7	0xbe1e20da	-0.1544222
8	0xbe19752e	-0.14986107
9	0x3a1994fa	0.0005858686
10	0xbad77031	-0.0016436634
11	0x3df11f32	0.11773528
12	0x3ea35559	0.31901053
13	0x3e8d100a	0.275513
14	0xbc744ba0	-0.0149106085
