PolyI_ZK/poly_NN_Lyap_layer_2_width_15_samples_250000_lr_0.001_epoch_300_90000.pt (torch, 5191 bytes, 5 tensors)

weight f4 [15, 2]
000000 39 b7 b4 be e4 5d 42 bf 97 f8 d0 3f ca 1c 9f 3e
       -0.35296038 -0.75924516 1.6325864 0.31076652
000010 ca 25 f1 be db 08 01 bf cb 06 9d 3f b3 8b 75 3e
       -0.47099143 -0.5040414 1.2267698 0.23979072
000020 31 ba 35 40 c9 70 4a 3f b6 85 fc bf 38 26 5f bf
       2.8394892 0.79078346 -1.9728305 -0.8716769
000030 04 12 0b bf 35 3a c4 3e 2a f4 20 bf 3c 17 dd be
       -0.54324365 0.38325658 -0.62872565 -0.4318179
000040 a4 4b 8f be 7b 29 cf be 4a 3b 04 40 df 93 1f 3f
       -0.27987397 -0.40461335 2.0661187 0.6233501
000050 b9 b1 7b 3f 4e a6 87 3d 77 5a 73 40 cc bd 8a 3f
       0.9831806 0.06623517 3.8023965 1.0839171
000060 d7 8e 91 3f 74 00 5d bd a6 bd d2 3e 8b 67 68 3f
       1.1371716 -0.05395551 0.41160315 0.90782994
000070 c4 40 b0 3f 80 0b a7 3f
       1.3769765 1.3050385

bias f4 [15]
000000 83 57 98 bf 38 24 2c c0 33 fe b1 3f b4 87 da be
       -1.1901706 -2.6897106 1.39057 -0.42681658
000010 4b 63 e3 40 d1 a8 67 40 40 89 e6 3e 21 40 a9 bf
       7.1058707 3.6196787 0.45026588 -1.3222696
000020 7a 6e 88 3e 30 3b 8b 40 cf 01 af 3f 39 91 12 c1
       0.26646787 4.350975 1.3672427 -9.160455
000030 fa 6d 37 3f 89 60 44 40 1a f0 aa c0
       0.71652186 3.068392 -5.3418093

weight f4 [15, 15]
000000 c3 0c 51 3b cf 84 10 3c 70 c7 0c 3c 98 79 ef 39
       0.0031898476 0.008820727 0.0085924715 0.00045676227
000010 17 10 cd 3b 39 50 26 bb dd 55 bd 3b dc 85 84 bb
       0.0062580216 -0.0025377406 0.005778058 -0.0040442776
000020 49 5b b5 3a 87 44 d9 bb c2 16 11 bc da c6 cb 3b
       0.0013836409 -0.0066304835 -0.008855524 0.0062187733
000030 1e 47 8c 3b 99 6c af bb 84 0c 92 3b 48 55 e1 3c
       0.0042809388 -0.005353522 0.0044570584 0.027506486
000040 a2 32 83 bc 92 68 6e bc 62 7e bc 3c 14 63 2e 3d
       -0.016015355 -0.014551299 0.023009483 0.042574957
000050 72 75 50 3d 17 ad 46 bc 1f 07 f1 3c 65 ca ff bc
       0.050893255 -0.012126229 0.02942234 -0.031224439
000060 cf 87 4f bd c3 eb b9 3b ab 7a 36 3d 58 b1 0d bb
       -0.050666627 0.005673857 0.04455058 -0.0021620598
000070 65 39 27 3d 44 20 5e bc 99 38 da 3f b2 64 c6 bd
       0.04082622 -0.013557497 1.7048522 -0.09687175
000080 99 c6 c1 bf a6 2f 94 3f b1 0f 2d c0 89 23 4b bf
       -1.5138732 1.1577041 -2.7040827 -0.793511
000090 f0 80 9e be d0 2c 25 40 97 62 bc bf 5b ed 98 c0
       -0.30957747 2.5808601 -1.4717587 -4.778974
0000a0 8f 65 64 3f 2a 64 95 3f 12 78 7a 3d 7d 13 52 c0
       0.89217466 1.1671193 0.061149664 -3.2824395
0000b0 8f 00 ec bf 9f 6f bd bf fe bb 23 bf 97 9d e1 3e
       -1.843767 -1.4799689 -0.6395873 0.44065544
0000c0 4c f3 6e be 0e df 46 bf 94 5d 64 be e7 ff 94 3f
       -0.23334998 -0.77684104 -0.22301322 1.1640595
0000d0 e1 7c 14 3f 89 fb a8 3f 5e 15 18 bf 04 07 4e 3f
       0.5800305 1.3201762 -0.59407604 0.80479455
0000e0 d2 0d af bf 68 c4 44 3f e2 25 b2 bf 11 42 89 bf
       -1.3676093 0.7686219 -1.3917811 -1.0723287
0000f0 0d 08 4c 3e 12 98 8f bd ca da 5a 3f 47 df 1b bf
       0.19924946 -0.07011427 0.85490096 -0.6088757
000100 2a 80 35 bf 2a cc 37 3e 6f 38 d7 3e e6 07 37 3f
       -0.7089869 0.17948976 0.42035243 0.7149643
000110 56 c2 76 3f e5 10 88 be b3 6a 2b 3e 8f c3 5c bf
       0.96390283 -0.2657539 0.16739921 -0.862359
000120 c9 4e 6a 3f 68 96 68 bf 1b a7 12 bf ec 9a a2 b9
       0.91526467 -0.908545 -0.5728623 -0.00031014474
000130 3b 67 03 3b 53 95 84 bc 1e 56 3c 3c ef fd c8 3b
       0.0020050544 -0.016184485 0.011495141 0.006133787
000140 03 8f 55 3b a9 8c 5a 3c ce bd 2c 3c 1e f1 b0 3c
       0.0032586462 0.0133392 0.0105433 0.021599349
000150 97 f8 ad 3b 49 5a 76 bb 1c 1d 20 bb 3b 04 80 3b
       0.0053091752 -0.0037590435 -0.0024431413 0.0039067543
000160 35 6c 22 3b 3a 6c 9b 37 b5 76 b5 3f 35 28 7e 3d
       0.0024783735 1.8527837e-05 1.4176852 0.062050063
000170 7f 18 06 bf cb 82 60 be 92 56 07 c0 de fe 43 3e
       -0.5238113 -0.21924894 -2.1146588 0.19140193
000180 e5 0c 62 bf ed e9 8b 3f 86 5b 69 3c 35 47 d2 bf
       -0.88300925 1.0930763 0.014243012 -1.6427981
000190 5d 1f ad bf 68 13 80 3f d9 98 5a bc 13 97 dd bf
       -1.3525196 1.0005922 -0.013342106 -1.7311729
0001a0 1a 0a ab bf b2 90 45 3f 63 9b 8b 3f 65 a1 13 bf
       -1.3362458 0.7717391 1.0906795 -0.57668144
0001b0 cd 16 ec bf e1 ad 36 3f bf 5f 23 c0 45 89 09 40
       -1.8444458 0.7135907 -2.5527189 2.1490033
0001c0 ce 96 9a bf c7 91 1a bf 4d 60 90 3c 0b 35 c9 bf
       -1.2077272 -0.6037869 0.017624045 -1.5719312
0001d0 48 f1 30 40 98 57 61 3f 29 c3 9b bf 0b 17 a8 3e
       2.7647266 0.8802428 -1.2168933 0.3283008
0001e0 47 30 de 3e 92 2b 12 be 7d 67 52 3f b0 14 e7 3e
       0.43396208 -0.14274433 0.8218916 0.4513297
0001f0 37 b3 b6 be c0 e7 3f be 0b 6a 32 bf f6 8d 4c 3f
       -0.35683605 -0.1874075 -0.6969306 0.79904115
000200 85 e8 85 3f 94 49 de be bd 28 b6 bd 49 0b 2a bf
       1.0461584 -0.4341551 -0.08894489 -0.6642347
000210 b9 57 5f bf 91 9c 27 bf 2c 41 44 bf 30 e5 10 3e
       -0.8724323 -0.65473276 -0.76661944 0.14149928
000220 1e 5f 22 c0 e0 fc 18 40 39 88 c3 bf 4a b1 ea bd
       -2.5370555 2.3904343 -1.5275947 -0.114595965
000230 18 9c 24 c0 a6 e9 2b 40 4d 9c 29 bf e2 30 19 40
       -2.5720272 2.6861358 -0.6625412 2.3936086
000240 53 56 5e 3e 1d bc db be 40 f4 7a c0 42 13 15 c0
       0.21712618 -0.42916957 -3.9211578 -2.3293004
000250 1b c2 f5 be 81 8f bf c0 0a 13 b6 3f 36 4f b9 3f
       -0.47999653 -5.9862676 1.422456 1.4477298
000260 33 10 f0 be 28 61 99 3d a3 6a 42 3f f6 41 6a bf
       -0.4688736 0.07489234 0.75943965 -0.915069
000270 a0 ba 3e bf fa 09 f4 bf d7 95 8b bf d1 d9 23 3f
       -0.7450352 -1.9065545 -1.0905102 0.64004236
000280 e9 05 aa 3e 09 e1 c4 3f 0c 20 97 3d 1b 45 d1 be
       0.33207634 1.5381175 0.07379159 -0.40873036
000290 b8 8d 83 bf 66 bd 8a be 7c d1 b5 bc b8 42 83 bf
       -1.0277624 -0.27097625 -0.022194616 -1.0254736
0002a0 42 82 b1 be e6 aa 59 3f 54 d4 04 be b0 eb f6 3e
       -0.3466969 0.85026395 -0.12971622 0.4822669
0002b0 f5 b8 d3 be ff 3d 6a bf 3f 7f 96 3e a3 28 4b 3f
       -0.4135205 -0.9150085 0.29393956 0.7935888
0002c0 4c 3d 5a 3f 73 46 3d 3e 58 9c 81 3f e2 f1 d2 3e
       0.8524978 0.18483905 1.0125837 0.41200167
0002d0 51 b9 2f bf ed 78 35 3f ea d4 bb bf 02 93 82 3e
       -0.68642145 0.70887643 -1.4674351 0.25502783
0002e0 e6 19 76 3f 78 eb a6 3d a4 94 9e 3d 26 24 e3 be
       0.9613327 0.08150381 0.07743195 -0.44363517
0002f0 80 8e a6 be df 31 88 3e 85 16 4b bf 35 05 4b 3f
       -0.32530594 0.2660055 -0.7933124 0.7930482
000300 0c 2e 28 bf 42 54 0a 3f a8 d1 35 3f 21 33 5a 3f
       -0.6569526 0.5403482 0.71023035 0.85234267
000310 51 1d 01 bf cc 21 15 3f 23 b6 bd 3e 1f 78 88 bf
       -0.5043536 0.58254695 0.37053022 -1.0661658
000320 c2 21 1a 3f 18 b9 a8 bf 45 a6 2a 3f 19 3e 90 be
       0.6020776 -1.3181486 0.6665996 -0.28172377
000330 41 a8 db be 2f a8 08 c0 ea 5f 7e bf 5d cd ce bd
       -0.42901805 -2.135265 -0.99365103 -0.10097764
000340 35 69 85 bf 5a 9d a8 3b 42 69 0e bd 84 f2 84 bf
       -1.0422732 0.005145711 -0.03476835 -1.038651
000350 f8 00 93 3e 29 e4 58 3f 39 9e 45 bf dd b3 02 bf
       0.28711677 0.84723145 -0.77194554 -0.510557
000360 92 d6 d1 bf d6 98 d5 3e 29 00 98 3f da 87 3c be
       -1.6393607 0.41718167 1.1875049 -0.18411198
000370 1f 34 40 bf 9c fa 13 c0 be fb 02 3f c3 9d 25 bf
       -0.7507953 -2.312171 0.5116538 -0.6469385
000380 56 96 19 bf
       -0.5999502

bias f4 [15]
000000 2d ef cc 3b 7e 1b 3c bb bc 3a 8c 40 b4 28 8d bf
       0.006254098 -0.002870291 4.3821697 -1.1028047
000010 4a dc 5e be bb 47 58 bb 3a a9 9c 3f c5 a6 81 3d
       -0.21763721 -0.003300174 1.2239144 0.06330637
000020 8e be e0 3e 3b ce 90 bd f2 32 1e 3f 2c 46 2c 3e
       0.43895382 -0.07070585 0.61796486 0.16823643
000030 e6 db de 3c 56 84 7e be 53 bd ec 3e
       0.027204465 -0.2485517 0.46238193

weight f4 [1, 15]
000000 55 73 4f b9 34 26 c6 3a fa b1 82 3c e8 b9 76 3d
       -0.00019784023 0.0015117587 0.015954006 0.060235888
000010 37 b5 9a 3e d3 74 30 39 05 82 72 bd 3c 54 e9 3c
       0.3021638 0.00016828188 -0.059206028 0.028482549
000020 fb d5 41 be fc 7f 36 bc f0 f7 25 bd 87 a4 94 3e
       -0.18929283 -0.011138912 -0.040519655 0.29031774
000030 96 f7 1a be ec e6 9c bd 58 46 ad 3d
       -0.15133509 -0.07661232 0.08460683
