PolyI_ZK/poly_NN_Lyap_layer_2_width_15_samples_90000_lr_0.001_epoch_300.pt (torch, 5007 bytes, 5 tensors)

weight f4 [15, 2]
000000 bb db 77 3f 31 c5 e5 3c e6 4e f8 3e 8b 18 61 3f
       0.9681966 0.02804813 0.48497695 0.87928075
000010 c2 61 0e 3f 96 fd c5 be 5e 45 b5 bd 9b ca 13 3f
       0.55617917 -0.38670033 -0.08851121 0.57731026
000020 63 f6 b1 bf 3e ef 89 bf 32 f2 32 bf 00 31 60 3d
       -1.3903316 -1.0776136 -0.6990081 0.05473423
000030 e1 f7 89 bf 46 6a ef be e8 52 d4 3e c6 8d 56 bf
       -1.0778772 -0.46760768 0.41469502 -0.8381008
000040 d6 2d 8e bf ac 44 c8 bc 62 d2 9d 3f 50 14 80 3f
       -1.1107738 -0.024446808 1.2329829 1.0006199
000050 ef 22 69 3f ad 97 c9 3e fe f6 1a 40 a5 9f 6a 3f
       0.9106893 0.39373532 2.4213252 0.9164985
000060 44 cb 46 40 ac 95 87 3f 6b 45 d9 3e af 69 eb 3e
       3.1061563 1.0592551 0.42435774 0.45979068
000070 5f d0 61 3d e5 71 1c bf
       0.05513036 -0.6111129

bias f4 [15]
000000 aa 0f ba bf c1 34 db bf b9 51 fb 3e 1a d7 a0 3f
       -1.453603 -1.7125474 0.49085787 1.2565644
000010 1c 4b 93 c0 d7 34 77 bf 92 12 4d bf 7d b4 cc be
       -4.6029186 -0.96565 -0.8010646 -0.39981452
000020 56 53 3f 3f 6d 10 29 bf ba be ed bf c0 04 b4 c0
       0.74736536 -0.6604069 -1.857383 -5.62558
000030 60 ca ed 40 ec 36 ff 3e 48 3c 08 40
       7.430954 0.4984659 2.1286793

weight f4 [15, 15]
000000 20 60 62 bf 2f 3f 7c 3e c6 cf 8b 3d 73 13 9f 3b
       -0.88427925 0.24633478 0.06826739 0.0048546134
000010 2a 9e 91 bf d4 2a 39 bf dc ef c5 be b3 01 54 be
       -1.1376393 -0.72330976 -0.3865956 -0.20703773
000020 ea 63 70 3f d2 1c 2f 3e c6 fc 98 3e 7a 22 c6 3f
       0.93902457 0.17100838 0.2988035 1.5479271
000030 60 89 c9 3e 91 a7 8b 3f 0c 9f 1c bf fc 23 3a bf
       0.3936262 1.0910512 -0.61180186 -0.7271116
000040 ed a4 8e be 94 ea 2b 3f e5 1e 97 be 55 a1 60 3f
       -0.27860203 0.6715481 -0.29515758 0.87746173
000050 19 38 a2 be 8d 3a 38 b9 ba 92 86 3e c2 08 3a 3e
       -0.31683424 -0.0001756942 0.26283818 0.18167403
000060 5b f7 02 be 31 2e 92 be 80 99 73 bf 93 05 99 be
       -0.12789671 -0.28550866 -0.951561 -0.29887065
000070 35 3e 83 bf 24 e8 05 3f 87 39 05 3d 99 57 a5 bc
       -1.0253359 0.52307343 0.032525565 -0.020183371
000080 f2 3f d7 3f d8 33 39 3f 6e df 5d 3f a4 a9 18 bf
       1.681639 0.7234473 0.8666905 -0.5963385
000090 60 d8 70 3e 63 76 00 3e d2 35 ca 3e 86 9d 42 be
       0.2352004 0.12545161 0.39494187 -0.19005403
0000a0 d1 d6 b7 bf 42 82 05 c0 67 5b ea 3f f1 73 89 bf
       -1.4362432 -2.0860753 1.8309144 -1.0738508
0000b0 7a 2f 2f 3f bd 01 a9 bd 70 89 24 bc 86 ea 49 3d
       0.6843182 -0.08252285 -0.010042533 0.049295925
0000c0 89 3f 24 bb ee be d4 3c 80 47 08 3d f2 94 bd bd
       -0.0025062284 0.025969949 0.033271313 -0.09256925
0000d0 2e ca 12 bd 1a 35 b4 bc 86 b9 d1 bd bf 3d 55 3e
       -0.035837345 -0.021997977 -0.10240464 0.20824336
0000e0 24 d6 d5 bd a0 ba 92 bc 8d 0d 9c 39 fe f5 83 bd
       -0.10441235 -0.017911255 0.00029764735 -0.06443404
0000f0 89 11 1e be 3e 27 48 3f a4 53 34 be 7b 0e 11 bf
       -0.15436377 0.7818488 -0.17610031 -0.5666272
000100 b7 9e 73 3f ce 93 3f 3f 51 ea 23 3f 69 b2 f4 bd
       0.95164055 0.7483491 0.64029413 -0.119480915
000110 d3 c6 33 3e 76 aa c0 3e 4f bb 91 bf 1b b9 05 bf
       0.17556314 0.3763005 -1.1385287 -0.52235574
000120 17 80 5f bf 47 e2 33 be f3 3b b9 3e c9 52 3b bc
       -0.87304825 -0.17566787 0.3617855 -0.011433312
000130 9c 4d bc bb 08 f9 30 3b 5a a0 fd 3b 43 91 e0 3b
       -0.0057465564 0.0027003903 0.0077400627 0.006853254
000140 9a 3c 43 bb 54 89 f0 3b 63 4a e0 39 0e 93 20 bb
       -0.002979076 0.0073405895 0.00042780032 -0.0024501714
000150 a2 f7 05 3c 94 83 dd 3b 41 15 48 3b 41 e5 e5 ba
       0.008176716 0.00676007 0.0030530246 -0.0017539636
000160 57 44 05 3a 04 a0 ab ba 45 61 28 3c 98 d4 80 3b
       0.0005083731 -0.0013093953 0.010277097 0.003931593
000170 1d d7 60 bb 84 0e bd b9 e3 75 99 bb a9 db a3 39
       -0.0034307905 -0.00036059704 -0.0046832426 0.00031253442
000180 0c 59 48 bc 5b f6 b5 bb 73 f9 3c ba 32 9d 34 bc
       -0.012228262 -0.0055530495 -0.00072088017 -0.011023806
000190 8f 01 97 bb e6 3b 81 ba a7 b2 d2 ba c6 91 01 bc
       -0.00460834 -0.000985977 -0.0016074971 -0.00790829
0001a0 06 87 55 3b 0d 13 a6 bf a9 d8 2a 3f 9c f7 45 bf
       0.00325817 -1.2974564 0.6673685 -0.77330947
0001b0 65 03 b3 bf fa 9c 24 40 d6 b2 1e 3f 95 34 a9 bf
       -1.3985411 2.572081 0.6199163 -1.3219172
0001c0 a1 92 1d 3f 9b 3a 27 bf eb cb f2 3e 77 5d 20 c0
       0.6155186 -0.653238 0.47421202 -2.5057046
0001d0 67 d2 dc bf 87 b6 6c c0 18 a4 60 bf 53 98 12 bf
       -1.725171 -3.6986406 -0.8775039 -0.5726368
0001e0 80 98 3b 3f ca 22 0e bf 39 e1 6a 3e 4e 44 cb be
       0.7327957 -0.55521834 0.22937478 -0.3970055
0001f0 41 f0 a3 3f 28 7c 16 3f 08 b8 4b 3f 35 dd 76 3d
       1.2807695 0.587832 0.79577684 0.060269553
000200 5c bb a7 be 91 28 12 be 5f ea e4 be 46 ff dd bd
       -0.3276013 -0.14273287 -0.4471006 -0.10839705
000210 30 0b 08 bf 78 2f 81 bf 2f 89 36 3f d2 23 53 3f
       -0.5314207 -1.0092611 0.71303076 0.8247653
000220 f0 27 7a bf 3b f3 0f c0 b7 63 78 bf c1 cf 26 40
       -0.9771719 -2.2492206 -0.9702715 2.6064303
000230 ee 3e 3f be ec c2 a8 3f 43 06 76 3f 8e 13 d7 bf
       -0.1867635 1.3184485 0.96103305 -1.6802843
000240 11 4e c4 bf 3b 96 22 3e ba c6 0d be 70 3e f4 bf
       -1.5336324 0.15877621 -0.1384534 -1.9081554
000250 c0 b7 af bd e5 34 19 be 00 69 ce 3f ab 3a 14 40
       -0.085799694 -0.14961584 1.6125793 2.3160808
000260 4d 64 1d c0 00 72 6f bf 39 91 9b bf f0 a0 58 bf
       -2.4592469 -0.93533325 -1.2153693 -0.8462057
000270 70 00 92 bf 0d 00 85 3f 9c 3d 4c 3f 13 30 d5 bf
       -1.1406384 1.039064 0.7978151 -1.6655296
000280 fc 3d e9 3f 28 63 95 40 01 8b b1 3f 06 24 be bd
       1.8222041 4.668354 1.3870546 -0.09284215
000290 54 77 e2 bf 36 a2 5c be 8e 1b e3 be ba 9a f8 be
       -1.7692666 -0.21546254 -0.4435696 -0.48555547
0002a0 4e b5 02 3f 3b b7 93 3f 0f ce 64 3f 31 b0 09 3f
       0.510579 1.1540293 0.8937692 0.5378447
0002b0 08 01 1b bf 44 fc ae 3c 78 a2 00 bf ed b8 69 bf
       -0.6054845 0.021360524 -0.5024791 -0.912978
0002c0 60 04 7a bf f9 2e 05 bf 95 3f 18 3e b4 d0 ff 3e
       -0.97662926 -0.520248 0.14868005 0.49963915
0002d0 dc a9 18 be be cd b7 bd ba a0 93 3f aa 50 16 3f
       -0.14908546 -0.08974789 1.1533425 0.58716834
0002e0 62 af 89 3e 98 04 1d bf 10 e8 80 3f 8d a6 9f 3c
       0.2689162 -0.61335135 1.007082 0.019488597
0002f0 50 99 0e 3f 0a c0 d1 bd 9a bb 85 bf e9 a9 7f bf
       0.55702686 -0.10241707 -1.0447876 -0.9986864
000300 d0 af 41 bf 30 b9 17 bf df d3 31 3f 13 39 fa 3a
       -0.75658894 -0.5926695 0.69463915 0.0019090496
000310 11 f5 00 ba ad 3c 8f ba db af 08 bc 2c ff cd bb
       -0.000491933 -0.0010928117 -0.008342708 -0.0062865224
000320 e7 fc 00 3c 1e 6c 05 bc f5 e4 cf b9 5f de 9d bb
       0.007872797 -0.008143453 -0.00039652703 -0.0048177685
000330 e1 38 c7 bb 26 f3 02 bb dc 40 92 bb b6 38 9e 3b
       -0.0060797785 -0.0019981354 -0.0044632982 0.004828538
000340 ac 8b ea ba ba ed a9 bb 52 34 60 3f 2f b3 ce be
       -0.0017894409 -0.00518581 0.87579834 -0.4037108
000350 a2 04 b5 bf a6 77 11 bf 58 b0 5d 3f 04 97 92 bd
       -1.4142039 -0.56823194 0.86597204 -0.0715771
000360 2a d5 3d 3f ec a7 f3 3e a8 55 ce 3d 33 cc 5b bd
       0.7415339 0.47589052 0.100749314 -0.053661536
000370 3b 8f 7d bf f1 c2 be bf b0 20 24 bf 68 4b bd be
       -0.9904668 -1.4903241 -0.6411238 -0.36971593
000380 c3 82 82 3e
       0.25490388

bias f4 [15]
000000 7e 26 95 bd cc c4 15 be d9 ee 63 bf 5c 84 44 3d
       -0.072827324 -0.14625853 -0.8903633 0.04797779
000010 01 5b 19 3f 31 84 95 3b 4f 85 90 bb a4 03 70 3f
       0.59904486 0.0045628776 -0.004410423 0.93755555
000020 cd 07 97 bd 5e 62 47 3e 1f a4 7c 3f b0 d7 b3 3d
       -0.07374535 0.19471118 0.9868793 0.087813735
000030 05 bf 07 3e 79 db 7d bb fe c8 9a 3e
       0.13256462 -0.0038735552 0.3023147

weight f4 [1, 15]
000000 b0 55 16 3e 28 bb 7f 3e 4f 55 95 bc e9 2f b5 3b
       0.14681125 0.24973738 -0.018229155 0.005529393
000010 43 ed 20 be 12 53 62 b9 4d a5 f1 39 62 b7 13 bd
       -0.15715508 -0.00021583986 0.0004609026 -0.03606356
000020 17 d2 c9 bd e9 7b 64 3c 96 cb 09 bd 98 ab 3e 3e
       -0.098545246 0.013945558 -0.03364142 0.18620145
000030 01 2e 02 3e 4a 61 6b b8 3a 55 1d be
       0.12712862 -5.6118974e-05 -0.15364543
