VDP_mu4_ZK/Van_der_Pol_dd_Lyap_layer_2_width_15_samples_90000_lr_0.001_epoch_300_mu_4.pt (torch, 5231 bytes, 5 tensors)

weight f4 [15, 2]
-2.3567147 0.13761167 0.103996865 2.613177 -1.0069716 -0.69443184 0.38263416 -1.0244889
3.4860528 -0.75155973 1.5083708 -0.63655055 2.0583851 -0.655277 3.1053448 -0.15795161
-2.3949027 0.41910362 0.67599756 -0.75435495 -0.61401916 -2.8256354 1.8889943 0.47677648
-0.44517508 -5.3605094 -0.27077806 1.6319988 -1.1489488 -0.4883878
00000000: 6ad4 16c0 13ea 0c3e 4ffc d43d 4b3e 2740
00000010: 72e4 80bf 49c6 31bf a0e8 c33e 7422 83bf
00000020: 7d1b 5f40 3866 40bf 4b12 c13f faf4 22bf
00000030: 95bc 0340 3cc0 27bf f8bd 4640 11be 21be
00000040: 1646 19c0 c094 d63e 2d0e 2d3f 681d 41bf
00000050: 5c30 1dbf 36d7 34c0 91ca f13f 0c1c f43e
00000060: fded e3be 4b89 abc0 6ca3 8abe 56e5 d03f
00000070: c110 93bf f70d fabe

bias f4 [15]
-1.4109632 -1.7268314 -2.574599 2.337128 3.0670092 2.1050494 -2.2491353 -1.278154
-2.0827277 -1.8638271 -0.15600124 -4.9161425 0.998921 -2.105745 3.2313104
00000000: 719a b4bf d008 ddbf 3bc6 24c0 8193 1540
00000010: e149 4440 21b9 0640 d5f1 0fc0 8d9a a3bf
00000020: 694b 05c0 e391 eebf cabe 1fbe 0a51 9dc0
00000030: 49b9 7f3f 87c4 06c0 cacd 4e40

weight f4 [15, 15]
0.36260173 1.2103194 -0.45123786 -0.2602967 1.3527678 0.38671774 3.8139813 1.9849565
-1.4397203 3.9039128 1.7037592 1.2866443 -0.57462054 0.92028373 -1.3081874 2.5095859
1.4377308 3.0276961 -1.3453696 -1.1356665 -2.8113918 0.53195804 -1.6654075 1.4380183
2.429688 0.029149715 -0.39881328 -0.9533421 0.9570461 -0.2202917 -0.050298303 0.018511605
-0.085378334 0.30923203 0.5221457 0.63554174 1.3022578 0.08153177 -0.6839802 0.41968554
0.32676843 0.9003389 0.19408369 0.5753133 -0.8303628 -1.4943792 -0.18439528 0.013795795
0.9234393 0.6865044 0.5719712 1.4127473 0.7479915 -0.1199368 -1.0586865 0.55204904
0.55885965 -0.23360682 0.08133044 -0.5788065 -1.1809087 -0.67713916 -2.6176307 0.964574
1.037698 1.1918852 0.594051 0.14839846 -0.6281578 -0.7207864 0.02416945 0.8873011
0.6759943 -0.6287493 -0.7651373 0.3466784 -0.3196274 -0.23669374 -1.4956894 -0.2488208
1.1964558 5.3346734 -1.5289674 -0.595525 -1.6257098 -0.556494 1.173776 0.2712687
1.9514867 -1.8016744 0.053992115 0.11046602 -0.0056055663 0.12737662 0.067688495 -0.09578197
0.0060182596 0.03186444 -0.028174955 0.042993803 -0.03969374 -0.47219136 -0.02950255 -0.07972122
-0.29196078 0.31816337 0.27245465 1.9886637 0.17842941 -0.06796834 -1.8181119 -0.5084185
0.27683774 1.0016482 -1.3971899 -0.5171145 -0.8005439 0.2774214 0.2679074 -0.071590565
-1.4590265 -1.4525864 -2.4948866 1.7607203 2.8455741 1.9198885 -0.17228127 0.14269719
-3.8341582 -0.5650357 1.339945 -0.026037531 0.9838197 -1.7170938 -0.58590966 -1.4356592
-0.1896033 -0.14201245 0.9889465 -0.43796343 0.43606797 2.5964859 0.6471759 -0.08514325
1.197254 -0.9171249 2.375831 0.5357499 -0.010620757 -0.77166104 1.9673511 2.0985458
3.568354 -2.1121993 -3.7596889 -2.5305536 -0.86826164 -0.22478092 3.5450625 0.42863426
-0.26418784 1.4749064 -1.2994009 1.8740178 -1.8510667 1.8610481 0.96849155 -0.16884908
-0.47571597 -0.62750584 -2.1500566 0.0047252 -3.0274782 1.6855235 -0.7292737 0.37879688
1.8233641 -0.00047966998 0.7190246 -0.43522808 2.8796244 1.7464662 3.8892384 -2.073435
-3.6344898 -2.9300396 -0.90647167 -0.15427397 2.3406878 0.43795085 -0.7071077 1.3668956
-1.6607765 1.9004966 -1.2082164 0.81779206 0.83972806 0.22397147 -1.3701001 0.86664087
0.5202403 5.176435 6.415076 -1.3271323 6.9624496 3.3179483 1.3324134 -1.1033174
2.2103727 -1.3246104 0.19127785 -0.039046105 -0.0015383525 -0.60253036 0.8839309 -0.12315211
0.12833358 0.5101405 -0.3287663 -1.0744635 -0.8367582 1.6009517 0.08993027 -0.5340871
-0.6127059
00000000: efa6 b93e bfeb 9a3f a608 e7be 9c45 85be
00000010: 7f27 ad3f deff c53e 4518 7440 0e13 fe3f
00000020: c148 b8bf b5d9 7940 c814 da3f c3b0 a43f
00000030: 551a 13bf b797 6b3f af72 a7bf 0e9d 2040
00000040: 9007 b83f c6c5 4140 1235 acbf 855d 91bf
00000050: d8ed 33c0 672e 083f 132c d5bf fc10 b83f
00000060: 0280 1b40 62cb ee3c 4131 ccbe 3a0e 74bf
00000070: f900 753f 2694 61be 9805 4ebd a6a5 973c
00000080: d6da aebd a953 9e3e 57ab 053f ddb2 223f
00000090: 62b0 a63f 21fa a63d 5419 2fbf 06e1 d63e
000000a0: 314e a73e 9c7c 663f e0bd 463e bc47 133f
000000b0: a892 54bf d147 bfbf 1ed2 3cbe c207 623c
000000c0: 8566 6c3f c1be 2f3f b46c 123f e7d4 b43f
000000d0: 5f7c 3f3f 6da1 f5bd 0a83 87bf 1653 0d3f
000000e0: 6d11 0f3f a036 6fbe 9390 a63d aa2c 14bf
000000f0: 0428 97bf fe58 2dbf 4387 27c0 52ee 763f
00000100: 4ad3 843f b28f 983f ba13 183f c4f5 173e
00000110: f3ce 20bf 7585 38bf 03ff c53c 2a26 633f
00000120: f60d 2d3f b7f5 20bf 0ae0 43bf d57f b13e
00000130: 34a6 a3be d85f 72be c072 bfbf e1ca 7ebe
00000140: 7725 993f a5b5 aa40 34b5 c3bf 5474 18bf
00000150: 4217 d0bf 6476 0ebf 4b3e 963f bbe3 8a3e
00000160: 51ca f93f 449d e6bf d626 5d3d 023c e23d
00000170: e6ae b7bb 046f 023e 44a0 8a3d 5629 c4bd
00000180: d234 c53b 4984 023d 2acf e6bc 451a 303d
00000190: e795 22bd 11c3 f1be 55af f1bc e144 a3bd
000001a0: e27b 95be 4fe6 a23e 2d7f 8b3e 888c fe3f
000001b0: 33b6 363e fc32 8bbd e4b7 e8bf b727 02bf
000001c0: adbd 8d3e 0236 803f 1ed7 b2bf 9e61 04bf
000001d0: 72f0 4cbf 2e0a 8e3e 292b 893e 139e 92bd
000001e0: 61c1 babf 5aee b9bf 39ac 1fc0 485f e13f
000001f0: e31d 3640 e8be f53f 806a 30be 361f 123e
00000200: d962 75c0 2ea6 10bf 5183 ab3f a94c d5bc
00000210: 9cdb 7b3f bbc9 dbbf 2dfe 15bf aec3 b7bf
00000220: 5e27 42be b66b 11be 992b 7d3f be3c e0be
00000230: 4d44 df3e d32c 2640 52ad 253f 965f aebd
00000240: 9e3f 993f b3c8 6abf 9d0d 1840 e826 093f
00000250: af02 2ebc 948b 45bf 29d2 fb3f 934e 0640
00000260: e95f 6440 462e 07c0 be9e 70c0 97f4 21c0
00000270: 6546 5ebf f82c 66be 4ee2 6240 f375 db3e
00000280: a143 87be bcc9 bc3f c552 a6bf d1df ef3f
00000290: c1ef ecbf d336 ee3f 10ef 773f c6e6 2cbe
000002a0: 0b91 f3be 39a4 20bf 879a 09c0 dad5 9a3b
000002b0: 34c2 41c0 3cbf d73f aeb1 3abf aaf1 c13e
000002c0: ff63 e93f 377c fbb9 ff11 383f 37d6 debe
000002d0: c44b 3840 348c df3f 48e9 7840 29b3 04c0
000002e0: 7b9b 68c0 c585 3bc0 870e 68bf fff9 1dbe
000002f0: d4cd 1540 183b e03e 0305 35bf 6ff6 ae3f
00000300: 5394 d4bf 7943 f33f d6a6 9abf d25a 513f
00000310: 6bf8 563f c758 653e 715f afbf 2ddc 5d3f
00000320: 782e 053f 5ba5 a540 4d48 cd40 79df a9bf
00000330: 63cc de40 4459 5440 868c aa3f 8139 8dbf
00000340: bf76 0d40 d58c a9bf 57de 433e cfee 1fbd
00000350: 8ba2 c9ba 6e3f 1abf 4c49 623f 2c37 fcbd
00000360: e169 033e 9198 023f 0e54 a8be 0588 89bf
00000370: c935 56bf fceb cc3f 5d2d b83d efb9 08bf
00000380: 4bda 1cbf

bias f4 [15]
0.6293377 1.597815 0.69824153 -0.36974624 -0.17936091 -0.6092973 -0.18928057 0.6890347
0.6649103 0.37831867 0.7762245 -0.10093163 0.849524 0.66723406 -0.5034608
00000000: 471c 213f 3485 cc3f f5bf 323f 614f bdbe
00000010: 63aa 37be e8fa 1bbf c4d2 41be 9464 303f
00000020: 9037 2a3f fcb2 c13e a6b6 463f 3eb5 cebd
00000030: 687a 593f dacf 2a3f cfe2 00bf

weight f4 [1, 15]
-0.103150554 -0.16929722 -0.29660448 0.12636332 0.15365024 0.1695761 -0.008506667 -0.12593874
-0.13250224 0.11274643 0.23967232 0.032746933 -0.39421996 -0.27686757 -0.17053135
00000000: 9940 d3bd 405c 2dbe 8bdc 97be 6365 013e
00000010: 7d56 1d3e 5ba5 2d3e 8c5f 0bbc 16f6 00be
00000020: abae 07be 9ae7 e63d a96c 753e a621 063d
00000030: 33d7 c9be 96c1 8dbe c59f 2ebe
