VDP_mu6_ZK/Van der Pol_NN_Lyap_layer_2_width_15_samples_90000_lr_0.001_epoch_300_90000.pt (torch, 5239 bytes, 5 tensors)

weight f4 [15, 2]
0	0x3fee4e65	1.8617674
1	0xbfeb96f8	-1.8405447
2	0x4026d9d8	2.6070461
3	0xbeecd6a6	-0.46257514
4	0x3fd4a063	1.6611446
5	0xbf1670fd	-0.58766156
6	0xc0441fd0	-3.0644417
7	0x3f25815d	0.6465052
8	0x3fcd7271	1.605055
9	0xbf798586	-0.97469366
10	0x3f0e1b4f	0.5551042
11	0x3f2cb6c1	0.6746636
12	0x3f3c584b	0.73572224
13	0x40a591a8	5.1740303
14	0xbff75c10	-1.932497
15	0xbea1a625	-0.3157207
16	0xbf687330	-0.9080076
17	0xbebaec37	-0.36508343
18	0x3f917a5c	1.1365466
19	0xbe23ea34	-0.1600731
20	0xbfc67681	-1.5504915
21	0xbe937629	-0.28801087
22	0x3fd1cac4	1.6390004
23	0xbf05992c	-0.52186847
24	0xc010679b	-2.2563236
25	0x3c9751fc	0.01847171
26	0xc03bed53	-2.9363601
27	0x3e20e396	0.15711817
28	0xbb9cc953	-0.004784742
29	0xc006d6a1	-2.10685

bias f4 [15]
0	0x402d86e5	2.7113583
1	0x400f8409	2.2424338
2	0x40445d87	3.0682085
3	0x403b1680	2.9232483
4	0xc0049bab	-2.0720012
5	0xbfb453c9	-1.4088069
6	0xbdebc966	-0.11513023
7	0x408f4810	4.4775467
8	0x4019dc16	2.404058
9	0xbe56aa15	-0.20963319
10	0xc0732a8a	-3.7994714
11	0xc01b7890	-2.4292336
12	0xbf770c14	-0.96502805
13	0x3f9ac6a1	1.2091867
14	0xbf80d074	-1.0063615

weight f4 [15, 15]
0	0x3b1dd54a	0.002408343
1	0x3c745140	0.01491195
2	0xbbe88ba7	-0.007096726
3	0xbaa92ee2	-0.0012907649
4	0x3ba164d8	0.0049253516
5	0x3b3aa60a	0.0028480315
6	0xbb0ad40f	-0.0021183526
7	0xbc416696	-0.011804244
8	0x3ccad125	0.024757931
9	0xbcaee570	-0.021349639
10	0x3bcf3ba5	0.006324249
11	0xba714664	-0.00092039094
12	0xbbb83643	-0.005621703
13	0xbc95cebd	-0.018287057
14	0xbc639a21	-0.013891728
15	0xbc28cb3f	-0.010302364
16	0x3f51765e	0.8182124
17	0x3ea53d5a	0.3227337
18	0xbedb6704	-0.42852032
19	0x3f151e02	0.58248913
20	0x3fae214f	1.3603915
21	0xbf364956	-0.7120565
22	0xbfd7872f	-1.683813
23	0xbf057ca5	-0.5214332
24	0x3f00e8ba	0.5035511
25	0xbf364eef	-0.71214193
26	0x3f415256	0.7551626
27	0x3ea3490f	0.31891677
28	0xbe96f489	-0.2948344
29	0x3f30d763	0.69078654
30	0xbffdb141	-1.9819719
31	0xbff75b5e	-1.9324758
32	0xbf855521	-1.0416604
33	0x3fcaf3ac	1.5855613
34	0x3fac7b9b	1.3475221
35	0x3e1a3f5d	0.15063234
36	0x3f1dd28d	0.616494
37	0x3e8563cb	0.26052698
38	0xbf019a09	-0.50625664
39	0xbf769fb8	-0.9633746
40	0x40800063	4.000047
41	0x3f6f352d	0.93440515
42	0x3f45115a	0.769796
43	0x3f5711cd	0.84011537
44	0x3f32b5aa	0.6980845
45	0x3fb5024b	1.4141325
46	0x3e744a20	0.23856401
47	0x401a434d	2.4103577
48	0xbf846620	-1.0343666
49	0x3ecc7ade	0.3993749
50	0x3f007a5d	0.5018671
51	0xbede5b92	-0.43429238
52	0x3f1b0049	0.6054731
53	0xbd23af16	-0.039961897
54	0xbe10db05	-0.1414605
55	0xc04a2721	-3.1586382
56	0x3f2c94af	0.67414373
57	0xbf7a1f72	-0.9770423
58	0xbeb7cca9	-0.3589833
59	0xbfd1d4e7	-1.6393098
60	0x3ef3a47d	0.47586432
61	0xbfb9b3ee	-1.4508035
62	0x3fd876b4	1.6911225
63	0x3fc7892e	1.5588739
64	0xbfb7e3a1	-1.4366342
65	0xbfb8f939	-1.4451057
66	0x400b089c	2.1724005
67	0x40819af7	4.0501666
68	0x3f4dd9c9	0.8041044
69	0xbf857c97	-1.0428647
70	0xbe87d495	-0.26529375
71	0xbf885b30	-1.0652828
72	0x3e7bbca8	0.24583685
73	0x3fb989de	1.4495199
74	0xbfc2a011	-1.5205098
75	0xc0283bec	-2.6286573
76	0xc00ce5f9	-2.2015364
77	0xbf7fcdf2	-0.9992362
78	0x3e83d78c	0.25750387
79	0x3fa74621	1.3068277
80	0x3fa58d74	1.2933793
81	0x4018e69b	2.389075
82	0xbf35a15b	-0.70949334
83	0xbd647dee	-0.05578416
84	0xbfcaa756	-1.5832317
85	0x4077f758	3.8744717
86	0x3f889191	1.0669423
87	0x40141fe2	2.314446
88	0x3fc43ce0	1.5331078
89	0x40069ccd	2.1033204
90	0xbc82f7ce	-0.015987303
91	0x3cab1cf5	0.020887831
92	0x3bc7a24e	0.0060923463
93	0xbb240909	-0.00250298
94	0x3ba2d45f	0.0049691643
95	0xbc3fcad4	-0.011706073
96	0x3c770195	0.015076061
97	0xbb21c6fb	-0.0024685252
98	0x3cb070a6	0.02153809
99	0xbc6e5e28	-0.014548816
100	0x3ba9e629	0.005184908
101	0x3c5bb201	0.013409139
102	0x3c49c7b4	0.012315679
103	0xbc86cb60	-0.016454399
104	0xba0052ad	-0.0004895132
105	0x3c173e1e	0.0092311185
106	0x3c3d7f84	0.011566047
107	0x3b8d158b	0.0043055466
108	0xbbb68ded	-0.005571118
109	0x3b6f9e00	0.0036562681
110	0x3cda6871	0.02666113
111	0xbc53b726	-0.012922084
112	0xbc9433f8	-0.018091187
113	0x3c7d64b7	0.015465907
114	0x3bfa6807	0.0076417956
115	0x3b9bee92	0.0047586644
116	0xbc1fb01b	-0.009746577
117	0x3c39b7f2	0.01133536
118	0x3c5ec1ae	0.0135959815
119	0xbc70cb0b	-0.014696847
120	0xbfea3ed5	-1.8300425
121	0x3edb58c5	0.42841163
122	0x3ed8efb8	0.4237039
123	0xc04024ed	-3.0022538
124	0x3f8b2461	1.0870477
125	0x3fc40ab6	1.5315769
126	0x3ebef112	0.37293297
127	0xc01e7b35	-2.47627
128	0xbf9369cc	-1.1516662
129	0x3f829dc7	1.02044
130	0x3f02751a	0.5095993
131	0x3ff9c871	1.9514295
132	0xbec7d515	-0.39029756
133	0xbfe91c1e	-1.8211706
134	0x40242410	2.564701
135	0xbc6463ae	-0.013939781
136	0x3b9c12c9	0.0047629816
137	0x3b0e4d37	0.0021713504
138	0xbac7081a	-0.001518491
139	0xbc0673b7	-0.0082062995
140	0x3b8ac5f5	0.004235024
141	0x3c7d7cf0	0.015471682
142	0xba9dafed	-0.0012030579
143	0xbb1febf0	-0.0024402104
144	0x3b78ad63	0.0037945143
145	0x3b93c2d4	0.0045093093
146	0x3bfeba1e	0.0077736517
147	0x3a7685cb	0.0009404092
148	0xbb0e00cb	-0.0021667953
149	0x3c8fcf92	0.017555032
150	0xbdcb4b81	-0.099265106
151	0xbfb88276	-1.4414814
152	0x3f052dcd	0.5202301
153	0x3eab81c4	0.3349744
154	0xbd50eac1	-0.05100513
155	0xbdd4c503	-0.103891395
156	0x3d02e250	0.03195411
157	0x3f7d2fde	0.98901165
158	0x3f21f2f4	0.6326134
159	0xbe9978aa	-0.29974872
160	0x3fa80624	1.3126874
161	0xbf9f3c34	-1.2440248
162	0x3ece9076	0.4034459
163	0x3f03f8e2	0.5155164
164	0xbda6e258	-0.081486404
165	0x3c22685d	0.009912577
166	0xbc8dfff6	-0.017333966
167	0x3aac8831	0.0013163147
168	0xbb2db911	-0.0026508013
169	0x3c26efe9	0.010189035
170	0x3cc7a2d6	0.024369638
171	0xbca17dec	-0.019713365
172	0xbc431273	-0.011906254
173	0x3b9d1a5d	0.0047944025
174	0xbbe5b665	-0.0070102685
175	0x3b9aed60	0.0047280043
176	0xbc849f1b	-0.016189149
177	0xbc783c50	-0.015151098
178	0x3c016475	0.007897486
179	0xbbcf644d	-0.0063290955
180	0xbdeb8967	-0.11500817
181	0x3dbe65b4	0.09296742
182	0xbf56ab8d	-0.83855516
183	0x3f5abcdf	0.85444444
184	0x3e608471	0.21925522
185	0x3ea09ece	0.31371158
186	0x3c54caee	0.012987835
187	0x3f6ed9f7	0.9330134
188	0xbf29bced	-0.663039
189	0xbf47bae9	-0.7801958
190	0x400541e8	2.0821476
191	0x3e25bd2a	0.16185442
192	0x3f049760	0.5179348
193	0x3ef002f2	0.46877247
194	0xbe27beb8	-0.16381347
195	0x3fa0f666	1.2575195
196	0xbf74f7ad	-0.95690423
197	0xbf4107f5	-0.75402766
198	0x400d6cc3	2.2097633
199	0xbf8d6223	-1.1045574
200	0xbffe45a2	-1.9865
201	0x3fa79483	1.3092197
202	0x3fc31ffb	1.5244135
203	0x3fdb58e0	1.7136497
204	0xbf9d1788	-1.2272806
205	0xbfc9d10c	-1.5766921
206	0xc00e3e03	-2.222535
207	0xbdc38cb9	-0.09548325
208	0x401a7a11	2.4137003
209	0xbff9cabf	-1.9514998
210	0xbf9eb7be	-1.2399824
211	0x3f3e5bc8	0.743588
212	0x3f1ce84c	0.61291957
213	0xc0230fd3	-2.5478408
214	0x3fc7c30a	1.5606396
215	0xbc9103a5	-0.017701933
216	0xbfe1f95a	-1.7654221
217	0xc0418b39	-3.0241225
218	0xbf91b232	-1.1382506
219	0x3f78c185	0.9717029
220	0x3ea6a298	0.32545924
221	0x3e7f5dbe	0.24938104
222	0xbf83b7d6	-1.0290477
223	0xbfa031fa	-1.2515252
224	0x40001d67	2.0017946

bias f4 [15]
0	0xbb260674	-0.0025333436
1	0x3f28421d	0.6572588
2	0x3e393fa4	0.18090683
3	0xbfab73d0	-1.3394718
4	0xbff0a15b	-1.8799242
5	0x3fc41c80	1.5321198
6	0xbbfa2226	-0.0076334653
7	0x3bbd3188	0.005773727
8	0x3d31fd54	0.043454483
9	0x3b9fcf4a	0.0048770057
10	0xbe135a10	-0.14389825
11	0x3c4b72c2	0.012417497
12	0x3f68326c	0.9070194
13	0xbf0cc093	-0.54981345
14	0x3e8d2482	0.27566916

weight f4 [1, 15]
0	0xb9694684	-0.0002224688
1	0xbe53eadc	-0.2069506
2	0x3e5ee173	0.2176569
3	0x3e2228fd	0.15835948
4	0x3e76cf33	0.24102478
5	0xbecb4f73	-0.39709052
6	0x3a30f934	0.00067510013
7	0x38af00c2	8.3447914e-05
8	0x3d8c4d0d	0.06850634
9	0xba4f723c	-0.00079134456
10	0x3dcf33ba	0.10117288
11	0xb9176647	-0.00014438583
12	0xbe325073	-0.17413501
13	0x3e2690c1	0.16266157
14	0x3e0664d7	0.13124405
