VDP_mu6_ZK/Van der Pol_NN_Lyap_layer_2_width_15_samples_250000_lr_0.001_epoch_300_90000.pt (torch, 5439 bytes, 5 tensors)

weight f4 [15, 2]
0	0x4024c8e5	2.5747616
1	0xbe5f79e5	-0.21823843
2	0x4002dcc6	2.044725
3	0xc0205267	-2.5050294
4	0x3fe872a2	1.8159983
5	0xbf0e8998	-0.556787
6	0x3ca160e3	0.01969952
7	0x40329554	2.7903643
8	0x405e8119	3.4766295
9	0x3eed3fd0	0.46337748
10	0x3e4c6df0	0.19963813
11	0x40b06be2	5.5131693
12	0x3f0e9a2b	0.5570399
13	0x3f0067cf	0.501584
14	0xc0460de1	-3.094597
15	0x3f0edae9	0.5580278
16	0x3ffafc43	1.9608234
17	0x3eabb316	0.3353507
18	0xbd6a0eea	-0.05714313
19	0xbf3e0fe7	-0.74243015
20	0xbf3c9205	-0.7366031
21	0xbf168023	-0.5878927
22	0xc0275a46	-2.6148849
23	0x3f27f517	0.6560835
24	0xc02446ae	-2.566814
25	0x3e46e032	0.19421461
26	0x3f04604a	0.51709425
27	0x3f0b8410	0.54498386
28	0xc0354903	-2.8325813
29	0x3e9f5a30	0.31123495

bias f4 [15]
0	0xbf66e884	-0.9019854
1	0xc04a9ab3	-3.165692
2	0xc003389e	-2.0503306
3	0xbef9d111	-0.48792318
4	0x40e482a3	7.140947
5	0x3f5a898d	0.85366136
6	0x4081da1f	4.057876
7	0x4013e017	2.3105524
8	0xc099f73d	-4.8114305
9	0x3ef1693e	0.47150606
10	0x4026fd1d	2.6091988
11	0xc04c1dd6	-3.189321
12	0xbf2512fc	-0.6448209
13	0x3ffa3fdd	1.955074
14	0xc0162ec2	-2.3466039

weight f4 [15, 15]
0	0xbf4848b3	-0.7823593
1	0x3f859de1	1.0438806
2	0x3fbb4c6d	1.4632698
3	0x3e901583	0.28141412
4	0x403dff53	2.9687088
5	0xbead5af5	-0.33858457
6	0x3f1abba4	0.60442567
7	0xbf911611	-1.1334859
8	0x4014a683	2.322663
9	0xbfea629b	-1.8311342
10	0xbeae130a	-0.339989
11	0x3f16d9d5	0.58926135
12	0xbfac8082	-1.3476717
13	0x3ec738f9	0.38910654
14	0x40034268	2.050928
15	0x3f3ab777	0.72936195
16	0xbf09de38	-0.53854704
17	0x3ee109fc	0.4395293
18	0xbfc95b31	-1.5730954
19	0x403299e4	2.7906427
20	0x3f2a6cff	0.66572565
21	0x400eceb5	2.2313664
22	0xbf4b9786	-0.7952808
23	0xbf8b4a5f	-1.0882071
24	0x3ff27b8b	1.8943952
25	0x3a47e311	0.0007625083
26	0xc0145f9a	-2.318335
27	0xbfaf76c5	-1.370812
28	0xbeb7b7e1	-0.35882476
29	0xbfe4f17e	-1.7886198
30	0x3faab67b	1.3336939
31	0x3f9f5b6d	1.2449776
32	0x40222bb4	2.5339174
33	0x3f97b8fd	1.1853329
34	0xc00c6edd	-2.1942666
35	0xc01652b1	-2.348797
36	0xbf5a9df5	-0.85397273
37	0xbfcc53ba	-1.5963051
38	0x408623a3	4.19185
39	0x3eeb4053	0.45947513
40	0xc01df602	-2.4681401
41	0x403819a0	2.876564
42	0xbf88fd6d	-1.070234
43	0x3f082fdc	0.5319803
44	0xc049fff9	-3.1562483
45	0x3cf2c44d	0.02963462
46	0xc02de322	-2.716988
47	0xc09c806c	-4.8906765
48	0xbff1288e	-1.8840501
49	0x3ee4bcbc	0.44675243
50	0xc0247232	-2.56947
51	0xbe856afd	-0.26058188
52	0x408c2ac1	4.380219
53	0xc06555e2	-3.5833669
54	0xbe4f4e6c	-0.2024476
55	0xbe8759e4	-0.2643577
56	0x401ca818	2.4477596
57	0x406af2de	3.6710734
58	0xbe9bd555	-0.30436197
59	0x3fca256e	1.5792673
60	0xc0405fda	-3.0058503
61	0x3f10b44b	0.56525105
62	0x3f917bf1	1.1365949
63	0x40754c3f	3.8327787
64	0xc0065c02	-2.0993657
65	0xbfa136a3	-1.2594799
66	0xc0140ee9	-2.31341
67	0x3f6e96a3	0.93198603
68	0x40161380	2.3449402
69	0xc0242b74	-2.5651522
70	0x3ec97324	0.39345658
71	0x402d63a9	2.7092078
72	0x3f4cabd6	0.799497
73	0xbfbe818f	-1.4883288
74	0x40144d55	2.31722
75	0x3ea7dd10	0.32785845
76	0x3c4bca8f	0.01243843
77	0xbf9596f8	-1.1686697
78	0xc05005d9	-3.250357
79	0x3f652408	0.89508104
80	0x3faba4e8	1.34097
81	0x3f2b88dd	0.6700571
82	0xbe0ebe6b	-0.13939826
83	0x3fa91de0	1.3212242
84	0x3f78f481	0.97248083
85	0xbf0160d6	-0.50538385
86	0xc01cfad9	-2.4528105
87	0xc0100d9f	-2.2508314
88	0x4054590f	3.3179357
89	0xbf87bffe	-1.0605466
90	0xbe466921	-0.19376041
91	0xc047d5c5	-3.1224225
92	0xc01668af	-2.3501394
93	0xbfbe2ea9	-1.485799
94	0x3c150052	0.009094315
95	0x3f78a0bc	0.9712026
96	0xbcca331d	-0.024682576
97	0x3fadba57	1.3572491
98	0xbf6acb9e	-0.91716945
99	0x3fcec384	1.6153417
100	0x4022dc7b	2.544707
101	0x3f106305	0.5640109
102	0x3f2323db	0.63726586
103	0xbf4cfbd8	-0.80071783
104	0x3e81e7da	0.253722
105	0xbbe0df46	-0.006862554
106	0x3c9cbcee	0.019133057
107	0xbbfe3b9b	-0.0077585704
108	0x3c0ad2fa	0.008473152
109	0x3bfca6fe	0.0077103367
110	0xbbbb9796	-0.0057248576
111	0x3c8dc234	0.017304517
112	0x3c1cb4e4	0.009564612
113	0x3cd885b9	0.026430951
114	0xbc1b4e92	-0.009479182
115	0x3bc922cd	0.006138182
116	0xbc060abb	-0.008181269
117	0x39fc797e	0.00048155704
118	0xbb2c8714	-0.002632563
119	0x3bef966b	0.0073116324
120	0x3f81e4ad	1.0147911
121	0x3f08185b	0.53162163
122	0x401bbe9b	2.4335086
123	0xbfced889	-1.6159831
124	0xbc89e1bf	-0.016831277
125	0x3f164fc2	0.5871545
126	0xbf2bf3ac	-0.6716869
127	0xc0140f29	-2.3134253
128	0x409f83c7	4.984836
129	0x3f8b694b	1.0891508
130	0xc037ce39	-2.8719618
131	0xbeaff4dd	-0.34366503
132	0xbf883310	-1.0640583
133	0x3f033dc4	0.5126612
134	0xbe729b6e	-0.23692104
135	0x3f35580b	0.7083747
136	0x401dcca6	2.4656157
137	0x3fcc7921	1.5974466
138	0x3f956e9d	1.1674381
139	0xc0877772	-4.2333307
140	0xbf01772c	-0.50572467
141	0x3f558bbb	0.83416337
142	0xbfcf3aa2	-1.6189768
143	0x3fd57e12	1.6679099
144	0xbff20f62	-1.8910944
145	0x3ea38ae2	0.31941897
146	0x3da6491f	0.081194155
147	0xc01bf1bb	-2.436629
148	0xbe4d312b	-0.20038287
149	0xbfd02458	-1.6261091
150	0xbd4fe20d	-0.05075269
151	0xbc658ecd	-0.014011097
152	0xbd145de5	-0.036222357
153	0x3ea0b40e	0.3138737
154	0xbb967404	-0.004591467
155	0xbe724136	-0.23657688
156	0xbc929c17	-0.017896695
157	0xbd90b7b7	-0.07066291
158	0xbc29cf1d	-0.010364321
159	0x3e1a5f27	0.1507536
160	0xbca63943	-0.020290976
161	0xbca0cf67	-0.019630147
162	0xbcb970cc	-0.022636794
163	0x3d415a06	0.047204994
164	0x3cb55c35	0.022138694
165	0xbf00c8c3	-0.5030634
166	0xbda74f2a	-0.08169396
167	0xc035faf1	-2.8434412
168	0xbeb97017	-0.3621833
169	0x3f3a6308	0.7280736
170	0x3d290579	0.041264985
171	0x3e61f8b0	0.22067523
172	0x3f0b125e	0.543249
173	0xbfa5dbf8	-1.2957754
174	0xbe213a88	-0.15744984
175	0x3f534f01	0.82542425
176	0x3eb834af	0.35977694
177	0x401d7475	2.460233
178	0xbedc5d42	-0.430399
179	0x3fa4fb3c	1.2889171
180	0x3fe219e4	1.7664151
181	0xbb903532	-0.0044008726
182	0xbfe21e8e	-1.7665575
183	0x3d7c301f	0.06156933
184	0x3ef9b1e0	0.4876852
185	0x3d87a165	0.066225804
186	0x3f40dcc8	0.75336885
187	0xc014ae77	-2.3231485
188	0x3eb228aa	0.3479665
189	0x3f8690e4	1.0512967
190	0x3d8dc429	0.0692218
191	0xc08d3e56	-4.4138594
192	0xbfc2fa75	-1.5232683
193	0xbdc4342a	-0.09580262
194	0x3df2ce81	0.11855794
195	0x3f82ac5c	1.020885
196	0x3cf86717	0.030322595
197	0x3f6bfdd2	0.92184174
198	0x3ec6caad	0.38826504
199	0xc03be5c8	-2.9358997
200	0x3e15fc7d	0.14647098
201	0xbf68cfb8	-0.90941954
202	0x403a0ecf	2.9071538
203	0xbf2ef2b4	-0.68339086
204	0x3feeeea9	1.8666583
205	0x3e968269	0.2939637
206	0x3eefad95	0.4681212
207	0xbd8327b6	-0.06404059
208	0xbf2c4e8b	-0.6730735
209	0x3e8a0c1a	0.26962358
210	0x4057fbf4	3.374753
211	0xbf7ac872	-0.97962105
212	0x4088cf9c	4.275343
213	0xc096fcb3	-4.718347
214	0xbe1fb6eb	-0.15597121
215	0x401b4c9b	2.4265506
216	0xc002f81b	-2.0463932
217	0xbfca23d3	-1.5792183
218	0x410fef3d	8.995908
219	0x402384d6	2.5549827
220	0xc01cf941	-2.4527133
221	0xbf810509	-1.0079662
222	0xbfb5fd55	-1.4217936
223	0x3f1e3c7f	0.6181106
224	0x3e0c27a9	0.13687004

bias f4 [15]
0	0x3f8b771d	1.0895725
1	0xbdf87038	-0.12130779
2	0x4045642b	3.0842388
3	0xbf05b694	-0.5223172
4	0x401a40b0	2.4101982
5	0x3e3f429b	0.18677752
6	0x3ba9110b	0.0051595024
7	0xbc394570	-0.011308059
8	0x3d77ba04	0.060480133
9	0x3fd7eef2	1.6869795
10	0x3bf292b2	0.0074027414
11	0xbf4b24ed	-0.7935322
12	0xc01b0262	-2.4220204
13	0x3f27a0e9	0.65479904
14	0xbe341157	-0.1758474

weight f4 [1, 15]
0	0xbe172649	-0.14760698
1	0xbe1651e4	-0.14679676
2	0xbea03d41	-0.31296733
3	0xbcba9483	-0.022775894
4	0xbea5ae19	-0.32359388
5	0x3ddc346d	0.10752187
6	0x3e1f23ca	0.15540996
7	0x3a310722	0.0006753077
8	0x3e1d5f96	0.15368494
9	0x3db8541c	0.090004176
10	0xbb63cac2	-0.0034758304
11	0x3dbea771	0.09309281
12	0x3d815dba	0.06316705
13	0xbe182a30	-0.14859843
14	0xbd53a30b	-0.05166916
